{"class_name": "Model", "config": {"name": "model", "layers": [{"class_name": "InputLayer", "config": {"batch_input_shape": [null, 32, 32, 1], "dtype": "float32", "sparse": false, "name": "image_Inputs"}, "name": "image_Inputs", "inbound_nodes": []}, {"class_name": "InputLayer", "config": {"batch_input_shape": [null, 128, 1], "dtype": "float32", "sparse": false, "name": "audio_Inputs"}, "name": "audio_Inputs", "inbound_nodes": []}, {"class_name": "ZeroPadding2D", "config": {"name": "zero_padding2d", "trainable": true, "dtype": "float32", "padding": [[3, 3], [3, 3]], "data_format": "channels_last"}, "name": "zero_padding2d", "inbound_nodes": [[["image_Inputs", 0, 0, {}]]]}, {"class_name": "ZeroPadding1D", "config": {"name": "zero_padding1d", "trainable": true, "dtype": "float32", "padding": [3, 3]}, "name": "zero_padding1d", "inbound_nodes": [[["audio_Inputs", 0, 0, {}]]]}, {"class_name": "Conv2D", "config": {"name": "Conv2D_Stage_1", "trainable": true, "dtype": "float32", "filters": 32, "kernel_size": [7, 7], "strides": [2, 2], "padding": "valid", "data_format": "channels_last", "dilation_rate": [1, 1], "activation": "linear", "use_bias": true, "kernel_initializer": {"class_name": "GlorotUniform", "config": {"seed": null}}, "bias_initializer": {"class_name": "Zeros", "config": {}}, "kernel_regularizer": null, "bias_regularizer": null, "activity_regularizer": null, "kernel_constraint": null, "bias_constraint": null}, "name": "Conv2D_Stage_1", "inbound_nodes": [[["zero_padding2d", 0, 0, {}]]]}, {"class_name": "Conv1D", "config": {"name": "Conv1D_Stage_1", "trainable": true, "dtype": "float32", "filters": 32, "kernel_size": [7], "strides": [2], "padding": "valid", "data_format": "channels_last", "dilation_rate": [1], "activation": "linear", "use_bias": true, "kernel_initializer": {"class_name": "GlorotUniform", "config": {"seed": null}}, "bias_initializer": {"class_name": "Zeros", "config": {}}, "kernel_regularizer": null, "bias_regularizer": null, "activity_regularizer": null, "kernel_constraint": null, "bias_constraint": null}, "name": "Conv1D_Stage_1", "inbound_nodes": [[["zero_padding1d", 0, 0, {}]]]}, {"class_name": "BatchNormalization", "config": {"name": "BN2D_Stage_1", "trainable": true, "dtype": "float32", "axis": [3], "momentum": 0.99, "epsilon": 0.001, "center": true, "scale": true, "beta_initializer": {"class_name": "Zeros", "config": {}}, "gamma_initializer": {"class_name": "Ones", "config": {}}, "moving_mean_initializer": {"class_name": "Zeros", "config": {}}, "moving_variance_initializer": {"class_name": "Ones", "config": {}}, "beta_regularizer": null, "gamma_regularizer": null, "beta_constraint": null, "gamma_constraint": null}, "name": "BN2D_Stage_1", "inbound_nodes": [[["Conv2D_Stage_1", 0, 0, {}]]]}, {"class_name": "BatchNormalization", "config": {"name": "BN1D_Stage_1", "trainable": true, "dtype": "float32", "axis": [2], "momentum": 0.99, "epsilon": 0.001, "center": true, "scale": true, "beta_initializer": {"class_name": "Zeros", "config": {}}, "gamma_initializer": {"class_name": "Ones", "config": {}}, "moving_mean_initializer": {"class_name": "Zeros", "config": {}}, "moving_variance_initializer": {"class_name": "Ones", "config": {}}, "beta_regularizer": null, "gamma_regularizer": null, "beta_constraint": null, "gamma_constraint": null}, "name": "BN1D_Stage_1", "inbound_nodes": [[["Conv1D_Stage_1", 0, 0, {}]]]}, {"class_name": "TensorFlowOpLayer", "config": {"name": "Relu", "trainable": true, "dtype": "float32", "node_def": {"name": "Relu", "op": "Relu", "input": ["BN2D_Stage_1/Identity"], "attr": {"T": {"type": "DT_FLOAT"}}}, "constants": {}}, "name": "tf_op_layer_Relu", "inbound_nodes": [[["BN2D_Stage_1", 0, 0, {}]]]}, {"class_name": "TensorFlowOpLayer", "config": {"name": "Relu_40", "trainable": true, "dtype": "float32", "node_def": {"name": "Relu_40", "op": "Relu", "input": ["BN1D_Stage_1/Identity"], "attr": {"T": {"type": "DT_FLOAT"}}}, "constants": {}}, "name": "tf_op_layer_Relu_40", "inbound_nodes": [[["BN1D_Stage_1", 0, 0, {}]]]}, {"class_name": "MaxPooling2D", "config": {"name": "max_pooling2d", "trainable": true, "dtype": "float32", "pool_size": [3, 3], "padding": "valid", "strides": [2, 2], "data_format": "channels_last"}, "name": "max_pooling2d", "inbound_nodes": [[["tf_op_layer_Relu", 0, 0, {}]]]}, {"class_name": "MaxPooling1D", "config": {"name": "max_pooling1d", "trainable": true, "dtype": "float32", "strides": [2], "pool_size": [3], "padding": "valid", "data_format": "channels_last"}, "name": "max_pooling1d", "inbound_nodes": [[["tf_op_layer_Relu_40", 0, 0, {}]]]}, {"class_name": "Conv2D", "config": {"name": "Conv2D_Stage_2_Block_A_a", "trainable": true, "dtype": "float32", "filters": 32, "kernel_size": [1, 1], "strides": [1, 1], "padding": "valid", "data_format": "channels_last", "dilation_rate": [1, 1], "activation": "linear", "use_bias": true, "kernel_initializer": {"class_name": "GlorotUniform", "config": {"seed": null}}, "bias_initializer": {"class_name": "Zeros", "config": {}}, "kernel_regularizer": null, "bias_regularizer": null, "activity_regularizer": null, "kernel_constraint": null, "bias_constraint": null}, "name": "Conv2D_Stage_2_Block_A_a", "inbound_nodes": [[["max_pooling2d", 0, 0, {}]]]}, {"class_name": "Conv1D", "config": {"name": "Conv1D_Stage_2_Block_A_a", "trainable": true, "dtype": "float32", "filters": 32, "kernel_size": [1], "strides": [1], "padding": "valid", "data_format": "channels_last", "dilation_rate": [1], "activation": "linear", "use_bias": true, "kernel_initializer": {"class_name": "GlorotUniform", "config": {"seed": null}}, "bias_initializer": {"class_name": "Zeros", "config": {}}, "kernel_regularizer": null, "bias_regularizer": null, "activity_regularizer": null, "kernel_constraint": null, "bias_constraint": null}, "name": "Conv1D_Stage_2_Block_A_a", "inbound_nodes": [[["max_pooling1d", 0, 0, {}]]]}, {"class_name": "BatchNormalization", "config": {"name": "BN2D_Stage_2_Block_A_a", "trainable": true, "dtype": "float32", "axis": [3], "momentum": 0.99, "epsilon": 0.001, "center": true, "scale": true, "beta_initializer": {"class_name": "Zeros", "config": {}}, "gamma_initializer": {"class_name": "Ones", "config": {}}, "moving_mean_initializer": {"class_name": "Zeros", "config": {}}, "moving_variance_initializer": {"class_name": "Ones", "config": {}}, "beta_regularizer": null, "gamma_regularizer": null, "beta_constraint": null, "gamma_constraint": null}, "name": "BN2D_Stage_2_Block_A_a", "inbound_nodes": [[["Conv2D_Stage_2_Block_A_a", 0, 0, {}]]]}, {"class_name": "BatchNormalization", "config": {"name": "BN1D_Stage_2_Block_A_a", "trainable": true, "dtype": "float32", "axis": [2], "momentum": 0.99, "epsilon": 0.001, "center": true, "scale": true, "beta_initializer": {"class_name": "Zeros", "config": {}}, "gamma_initializer": {"class_name": "Ones", "config": {}}, "moving_mean_initializer": {"class_name": "Zeros", "config": {}}, "moving_variance_initializer": {"class_name": "Ones", "config": {}}, "beta_regularizer": null, "gamma_regularizer": null, "beta_constraint": null, "gamma_constraint": null}, "name": "BN1D_Stage_2_Block_A_a", "inbound_nodes": [[["Conv1D_Stage_2_Block_A_a", 0, 0, {}]]]}, {"class_name": "TensorFlowOpLayer", "config": {"name": "Relu_1", "trainable": true, "dtype": "float32", "node_def": {"name": "Relu_1", "op": "Relu", "input": ["BN2D_Stage_2_Block_A_a/Identity"], "attr": {"T": {"type": "DT_FLOAT"}}}, "constants": {}}, "name": "tf_op_layer_Relu_1", "inbound_nodes": [[["BN2D_Stage_2_Block_A_a", 0, 0, {}]]]}, {"class_name": "TensorFlowOpLayer", "config": {"name": "Relu_41", "trainable": true, "dtype": "float32", "node_def": {"name": "Relu_41", "op": "Relu", "input": ["BN1D_Stage_2_Block_A_a/Identity"], "attr": {"T": {"type": "DT_FLOAT"}}}, "constants": {}}, "name": "tf_op_layer_Relu_41", "inbound_nodes": [[["BN1D_Stage_2_Block_A_a", 0, 0, {}]]]}, {"class_name": "Conv2D", "config": {"name": "Conv2D_Stage_2_Block_A_b", "trainable": true, "dtype": "float32", "filters": 32, "kernel_size": [3, 3], "strides": [1, 1], "padding": "same", "data_format": "channels_last", "dilation_rate": [1, 1], "activation": "linear", "use_bias": true, "kernel_initializer": {"class_name": "GlorotUniform", "config": {"seed": null}}, "bias_initializer": {"class_name": "Zeros", "config": {}}, "kernel_regularizer": null, "bias_regularizer": null, "activity_regularizer": null, "kernel_constraint": null, "bias_constraint": null}, "name": "Conv2D_Stage_2_Block_A_b", "inbound_nodes": [[["tf_op_layer_Relu_1", 0, 0, {}]]]}, {"class_name": "Conv1D", "config": {"name": "Conv1D_Stage_2_Block_A_b", "trainable": true, "dtype": "float32", "filters": 32, "kernel_size": [3], "strides": [1], "padding": "same", "data_format": "channels_last", "dilation_rate": [1], "activation": "linear", "use_bias": true, "kernel_initializer": {"class_name": "GlorotUniform", "config": {"seed": null}}, "bias_initializer": {"class_name": "Zeros", "config": {}}, "kernel_regularizer": null, "bias_regularizer": null, "activity_regularizer": null, "kernel_constraint": null, "bias_constraint": null}, "name": "Conv1D_Stage_2_Block_A_b", "inbound_nodes": [[["tf_op_layer_Relu_41", 0, 0, {}]]]}, {"class_name": "BatchNormalization", "config": {"name": "BN2D_Stage_2_Block_A_b", "trainable": true, "dtype": "float32", "axis": [3], "momentum": 0.99, "epsilon": 0.001, "center": true, "scale": true, "beta_initializer": {"class_name": "Zeros", "config": {}}, "gamma_initializer": {"class_name": "Ones", "config": {}}, "moving_mean_initializer": {"class_name": "Zeros", "config": {}}, "moving_variance_initializer": {"class_name": "Ones", "config": {}}, "beta_regularizer": null, "gamma_regularizer": null, "beta_constraint": null, "gamma_constraint": null}, "name": "BN2D_Stage_2_Block_A_b", "inbound_nodes": [[["Conv2D_Stage_2_Block_A_b", 0, 0, {}]]]}, {"class_name": "BatchNormalization", "config": {"name": "BN1D_Stage_2_Block_A_b", "trainable": true, "dtype": "float32", "axis": [2], "momentum": 0.99, "epsilon": 0.001, "center": true, "scale": true, "beta_initializer": {"class_name": "Zeros", "config": {}}, "gamma_initializer": {"class_name": "Ones", "config": {}}, "moving_mean_initializer": {"class_name": "Zeros", "config": {}}, "moving_variance_initializer": {"class_name": "Ones", "config": {}}, "beta_regularizer": null, "gamma_regularizer": null, "beta_constraint": null, "gamma_constraint": null}, "name": "BN1D_Stage_2_Block_A_b", "inbound_nodes": [[["Conv1D_Stage_2_Block_A_b", 0, 0, {}]]]}, {"class_name": "TensorFlowOpLayer", "config": {"name": "Relu_2", "trainable": true, "dtype": "float32", "node_def": {"name": "Relu_2", "op": "Relu", "input": ["BN2D_Stage_2_Block_A_b/Identity"], "attr": {"T": {"type": "DT_FLOAT"}}}, "constants": {}}, "name": "tf_op_layer_Relu_2", "inbound_nodes": [[["BN2D_Stage_2_Block_A_b", 0, 0, {}]]]}, {"class_name": "TensorFlowOpLayer", "config": {"name": "Relu_42", "trainable": true, "dtype": "float32", "node_def": {"name": "Relu_42", "op": "Relu", "input": ["BN1D_Stage_2_Block_A_b/Identity"], "attr": {"T": {"type": "DT_FLOAT"}}}, "constants": {}}, "name": "tf_op_layer_Relu_42", "inbound_nodes": [[["BN1D_Stage_2_Block_A_b", 0, 0, {}]]]}, {"class_name": "Conv2D", "config": {"name": "Conv2D_Stage_2_Block_A_c", "trainable": true, "dtype": "float32", "filters": 126, "kernel_size": [1, 1], "strides": [1, 1], "padding": "valid", "data_format": "channels_last", "dilation_rate": [1, 1], "activation": "linear", "use_bias": true, "kernel_initializer": {"class_name": "GlorotUniform", "config": {"seed": null}}, "bias_initializer": {"class_name": "Zeros", "config": {}}, "kernel_regularizer": null, "bias_regularizer": null, "activity_regularizer": null, "kernel_constraint": null, "bias_constraint": null}, "name": "Conv2D_Stage_2_Block_A_c", "inbound_nodes": [[["tf_op_layer_Relu_2", 0, 0, {}]]]}, {"class_name": "Conv2D", "config": {"name": "Conv2D_Stage_2_Block_A_shortcut", "trainable": true, "dtype": "float32", "filters": 126, "kernel_size": [1, 1], "strides": [1, 1], "padding": "valid", "data_format": "channels_last", "dilation_rate": [1, 1], "activation": "linear", "use_bias": true, "kernel_initializer": {"class_name": "GlorotUniform", "config": {"seed": null}}, "bias_initializer": {"class_name": "Zeros", "config": {}}, "kernel_regularizer": null, "bias_regularizer": null, "activity_regularizer": null, "kernel_constraint": null, "bias_constraint": null}, "name": "Conv2D_Stage_2_Block_A_shortcut", "inbound_nodes": [[["max_pooling2d", 0, 0, {}]]]}, {"class_name": "Conv1D", "config": {"name": "Conv1D_Stage_2_Block_A_c", "trainable": true, "dtype": "float32", "filters": 126, "kernel_size": [1], "strides": [1], "padding": "valid", "data_format": "channels_last", "dilation_rate": [1], "activation": "linear", "use_bias": true, "kernel_initializer": {"class_name": "GlorotUniform", "config": {"seed": null}}, "bias_initializer": {"class_name": "Zeros", "config": {}}, "kernel_regularizer": null, "bias_regularizer": null, "activity_regularizer": null, "kernel_constraint": null, "bias_constraint": null}, "name": "Conv1D_Stage_2_Block_A_c", "inbound_nodes": [[["tf_op_layer_Relu_42", 0, 0, {}]]]}, {"class_name": "Conv1D", "config": {"name": "Conv1D_Stage_2_Block_A_shortcut", "trainable": true, "dtype": "float32", "filters": 126, "kernel_size": [1], "strides": [1], "padding": "valid", "data_format": "channels_last", "dilation_rate": [1], "activation": "linear", "use_bias": true, "kernel_initializer": {"class_name": "GlorotUniform", "config": {"seed": null}}, "bias_initializer": {"class_name": "Zeros", "config": {}}, "kernel_regularizer": null, "bias_regularizer": null, "activity_regularizer": null, "kernel_constraint": null, "bias_constraint": null}, "name": "Conv1D_Stage_2_Block_A_shortcut", "inbound_nodes": [[["max_pooling1d", 0, 0, {}]]]}, {"class_name": "BatchNormalization", "config": {"name": "BN2D_Stage_2_Block_A_c", "trainable": true, "dtype": "float32", "axis": [3], "momentum": 0.99, "epsilon": 0.001, "center": true, "scale": true, "beta_initializer": {"class_name": "Zeros", "config": {}}, "gamma_initializer": {"class_name": "Ones", "config": {}}, "moving_mean_initializer": {"class_name": "Zeros", "config": {}}, "moving_variance_initializer": {"class_name": "Ones", "config": {}}, "beta_regularizer": null, "gamma_regularizer": null, "beta_constraint": null, "gamma_constraint": null}, "name": "BN2D_Stage_2_Block_A_c", "inbound_nodes": [[["Conv2D_Stage_2_Block_A_c", 0, 0, {}]]]}, {"class_name": "BatchNormalization", "config": {"name": "BN2D_Stage_2_Block_A_shortcut", "trainable": true, "dtype": "float32", "axis": [3], "momentum": 0.99, "epsilon": 0.001, "center": true, "scale": true, "beta_initializer": {"class_name": "Zeros", "config": {}}, "gamma_initializer": {"class_name": "Ones", "config": {}}, "moving_mean_initializer": {"class_name": "Zeros", "config": {}}, "moving_variance_initializer": {"class_name": "Ones", "config": {}}, "beta_regularizer": null, "gamma_regularizer": null, "beta_constraint": null, "gamma_constraint": null}, "name": "BN2D_Stage_2_Block_A_shortcut", "inbound_nodes": [[["Conv2D_Stage_2_Block_A_shortcut", 0, 0, {}]]]}, {"class_name": "BatchNormalization", "config": {"name": "BN1D_Stage_2_Block_A_c", "trainable": true, "dtype": "float32", "axis": [2], "momentum": 0.99, "epsilon": 0.001, "center": true, "scale": true, "beta_initializer": {"class_name": "Zeros", "config": {}}, "gamma_initializer": {"class_name": "Ones", "config": {}}, "moving_mean_initializer": {"class_name": "Zeros", "config": {}}, "moving_variance_initializer": {"class_name": "Ones", "config": {}}, "beta_regularizer": null, "gamma_regularizer": null, "beta_constraint": null, "gamma_constraint": null}, "name": "BN1D_Stage_2_Block_A_c", "inbound_nodes": [[["Conv1D_Stage_2_Block_A_c", 0, 0, {}]]]}, {"class_name": "BatchNormalization", "config": {"name": "BN1D_Stage_2_Block_A_shortcut", "trainable": true, "dtype": "float32", "axis": [2], "momentum": 0.99, "epsilon": 0.001, "center": true, "scale": true, "beta_initializer": {"class_name": "Zeros", "config": {}}, "gamma_initializer": {"class_name": "Ones", "config": {}}, "moving_mean_initializer": {"class_name": "Zeros", "config": {}}, "moving_variance_initializer": {"class_name": "Ones", "config": {}}, "beta_regularizer": null, "gamma_regularizer": null, "beta_constraint": null, "gamma_constraint": null}, "name": "BN1D_Stage_2_Block_A_shortcut", "inbound_nodes": [[["Conv1D_Stage_2_Block_A_shortcut", 0, 0, {}]]]}, {"class_name": "Add", "config": {"name": "add", "trainable": true, "dtype": "float32"}, "name": "add", "inbound_nodes": [[["BN2D_Stage_2_Block_A_c", 0, 0, {}], ["BN2D_Stage_2_Block_A_shortcut", 0, 0, {}]]]}, {"class_name": "Add", "config": {"name": "add_13", "trainable": true, "dtype": "float32"}, "name": "add_13", "inbound_nodes": [[["BN1D_Stage_2_Block_A_c", 0, 0, {}], ["BN1D_Stage_2_Block_A_shortcut", 0, 0, {}]]]}, {"class_name": "TensorFlowOpLayer", "config": {"name": "Relu_3", "trainable": true, "dtype": "float32", "node_def": {"name": "Relu_3", "op": "Relu", "input": ["add/Identity"], "attr": {"T": {"type": "DT_FLOAT"}}}, "constants": {}}, "name": "tf_op_layer_Relu_3", "inbound_nodes": [[["add", 0, 0, {}]]]}, {"class_name": "TensorFlowOpLayer", "config": {"name": "Relu_43", "trainable": true, "dtype": "float32", "node_def": {"name": "Relu_43", "op": "Relu", "input": ["add_13/Identity"], "attr": {"T": {"type": "DT_FLOAT"}}}, "constants": {}}, "name": "tf_op_layer_Relu_43", "inbound_nodes": [[["add_13", 0, 0, {}]]]}, {"class_name": "Conv2D", "config": {"name": "Conv2D_Stage_2_Block_B_a", "trainable": true, "dtype": "float32", "filters": 32, "kernel_size": [1, 1], "strides": [1, 1], "padding": "valid", "data_format": "channels_last", "dilation_rate": [1, 1], "activation": "linear", "use_bias": true, "kernel_initializer": {"class_name": "GlorotUniform", "config": {"seed": null}}, "bias_initializer": {"class_name": "Zeros", "config": {}}, "kernel_regularizer": null, "bias_regularizer": null, "activity_regularizer": null, "kernel_constraint": null, "bias_constraint": null}, "name": "Conv2D_Stage_2_Block_B_a", "inbound_nodes": [[["tf_op_layer_Relu_3", 0, 0, {}]]]}, {"class_name": "Conv1D", "config": {"name": "Conv1D_Stage_2_Block_B_a", "trainable": true, "dtype": "float32", "filters": 32, "kernel_size": [1], "strides": [1], "padding": "valid", "data_format": "channels_last", "dilation_rate": [1], "activation": "linear", "use_bias": true, "kernel_initializer": {"class_name": "GlorotUniform", "config": {"seed": null}}, "bias_initializer": {"class_name": "Zeros", "config": {}}, "kernel_regularizer": null, "bias_regularizer": null, "activity_regularizer": null, "kernel_constraint": null, "bias_constraint": null}, "name": "Conv1D_Stage_2_Block_B_a", "inbound_nodes": [[["tf_op_layer_Relu_43", 0, 0, {}]]]}, {"class_name": "BatchNormalization", "config": {"name": "BN2D_Stage_2_Block_B_a", "trainable": true, "dtype": "float32", "axis": [3], "momentum": 0.99, "epsilon": 0.001, "center": true, "scale": true, "beta_initializer": {"class_name": "Zeros", "config": {}}, "gamma_initializer": {"class_name": "Ones", "config": {}}, "moving_mean_initializer": {"class_name": "Zeros", "config": {}}, "moving_variance_initializer": {"class_name": "Ones", "config": {}}, "beta_regularizer": null, "gamma_regularizer": null, "beta_constraint": null, "gamma_constraint": null}, "name": "BN2D_Stage_2_Block_B_a", "inbound_nodes": [[["Conv2D_Stage_2_Block_B_a", 0, 0, {}]]]}, {"class_name": "BatchNormalization", "config": {"name": "BN1D_Stage_2_Block_B_a", "trainable": true, "dtype": "float32", "axis": [2], "momentum": 0.99, "epsilon": 0.001, "center": true, "scale": true, "beta_initializer": {"class_name": "Zeros", "config": {}}, "gamma_initializer": {"class_name": "Ones", "config": {}}, "moving_mean_initializer": {"class_name": "Zeros", "config": {}}, "moving_variance_initializer": {"class_name": "Ones", "config": {}}, "beta_regularizer": null, "gamma_regularizer": null, "beta_constraint": null, "gamma_constraint": null}, "name": "BN1D_Stage_2_Block_B_a", "inbound_nodes": [[["Conv1D_Stage_2_Block_B_a", 0, 0, {}]]]}, {"class_name": "TensorFlowOpLayer", "config": {"name": "Relu_4", "trainable": true, "dtype": "float32", "node_def": {"name": "Relu_4", "op": "Relu", "input": ["BN2D_Stage_2_Block_B_a/Identity"], "attr": {"T": {"type": "DT_FLOAT"}}}, "constants": {}}, "name": "tf_op_layer_Relu_4", "inbound_nodes": [[["BN2D_Stage_2_Block_B_a", 0, 0, {}]]]}, {"class_name": "TensorFlowOpLayer", "config": {"name": "Relu_44", "trainable": true, "dtype": "float32", "node_def": {"name": "Relu_44", "op": "Relu", "input": ["BN1D_Stage_2_Block_B_a/Identity"], "attr": {"T": {"type": "DT_FLOAT"}}}, "constants": {}}, "name": "tf_op_layer_Relu_44", "inbound_nodes": [[["BN1D_Stage_2_Block_B_a", 0, 0, {}]]]}, {"class_name": "Conv2D", "config": {"name": "Conv2D_Stage_2_Block_B_b", "trainable": true, "dtype": "float32", "filters": 32, "kernel_size": [3, 3], "strides": [1, 1], "padding": "same", "data_format": "channels_last", "dilation_rate": [1, 1], "activation": "linear", "use_bias": true, "kernel_initializer": {"class_name": "GlorotUniform", "config": {"seed": null}}, "bias_initializer": {"class_name": "Zeros", "config": {}}, "kernel_regularizer": null, "bias_regularizer": null, "activity_regularizer": null, "kernel_constraint": null, "bias_constraint": null}, "name": "Conv2D_Stage_2_Block_B_b", "inbound_nodes": [[["tf_op_layer_Relu_4", 0, 0, {}]]]}, {"class_name": "Conv1D", "config": {"name": "Conv1D_Stage_2_Block_B_b", "trainable": true, "dtype": "float32", "filters": 32, "kernel_size": [3], "strides": [1], "padding": "same", "data_format": "channels_last", "dilation_rate": [1], "activation": "linear", "use_bias": true, "kernel_initializer": {"class_name": "GlorotUniform", "config": {"seed": null}}, "bias_initializer": {"class_name": "Zeros", "config": {}}, "kernel_regularizer": null, "bias_regularizer": null, "activity_regularizer": null, "kernel_constraint": null, "bias_constraint": null}, "name": "Conv1D_Stage_2_Block_B_b", "inbound_nodes": [[["tf_op_layer_Relu_44", 0, 0, {}]]]}, {"class_name": "BatchNormalization", "config": {"name": "BN2D_Stage_2_Block_B_b", "trainable": true, "dtype": "float32", "axis": [3], "momentum": 0.99, "epsilon": 0.001, "center": true, "scale": true, "beta_initializer": {"class_name": "Zeros", "config": {}}, "gamma_initializer": {"class_name": "Ones", "config": {}}, "moving_mean_initializer": {"class_name": "Zeros", "config": {}}, "moving_variance_initializer": {"class_name": "Ones", "config": {}}, "beta_regularizer": null, "gamma_regularizer": null, "beta_constraint": null, "gamma_constraint": null}, "name": "BN2D_Stage_2_Block_B_b", "inbound_nodes": [[["Conv2D_Stage_2_Block_B_b", 0, 0, {}]]]}, {"class_name": "BatchNormalization", "config": {"name": "BN1D_Stage_2_Block_B_b", "trainable": true, "dtype": "float32", "axis": [2], "momentum": 0.99, "epsilon": 0.001, "center": true, "scale": true, "beta_initializer": {"class_name": "Zeros", "config": {}}, "gamma_initializer": {"class_name": "Ones", "config": {}}, "moving_mean_initializer": {"class_name": "Zeros", "config": {}}, "moving_variance_initializer": {"class_name": "Ones", "config": {}}, "beta_regularizer": null, "gamma_regularizer": null, "beta_constraint": null, "gamma_constraint": null}, "name": "BN1D_Stage_2_Block_B_b", "inbound_nodes": [[["Conv1D_Stage_2_Block_B_b", 0, 0, {}]]]}, {"class_name": "TensorFlowOpLayer", "config": {"name": "Relu_5", "trainable": true, "dtype": "float32", "node_def": {"name": "Relu_5", "op": "Relu", "input": ["BN2D_Stage_2_Block_B_b/Identity"], "attr": {"T": {"type": "DT_FLOAT"}}}, "constants": {}}, "name": "tf_op_layer_Relu_5", "inbound_nodes": [[["BN2D_Stage_2_Block_B_b", 0, 0, {}]]]}, {"class_name": "TensorFlowOpLayer", "config": {"name": "Relu_45", "trainable": true, "dtype": "float32", "node_def": {"name": "Relu_45", "op": "Relu", "input": ["BN1D_Stage_2_Block_B_b/Identity"], "attr": {"T": {"type": "DT_FLOAT"}}}, "constants": {}}, "name": "tf_op_layer_Relu_45", "inbound_nodes": [[["BN1D_Stage_2_Block_B_b", 0, 0, {}]]]}, {"class_name": "Conv2D", "config": {"name": "Conv2D_Stage_2_Block_B_c", "trainable": true, "dtype": "float32", "filters": 126, "kernel_size": [1, 1], "strides": [1, 1], "padding": "valid", "data_format": "channels_last", "dilation_rate": [1, 1], "activation": "linear", "use_bias": true, "kernel_initializer": {"class_name": "GlorotUniform", "config": {"seed": null}}, "bias_initializer": {"class_name": "Zeros", "config": {}}, "kernel_regularizer": null, "bias_regularizer": null, "activity_regularizer": null, "kernel_constraint": null, "bias_constraint": null}, "name": "Conv2D_Stage_2_Block_B_c", "inbound_nodes": [[["tf_op_layer_Relu_5", 0, 0, {}]]]}, {"class_name": "Conv1D", "config": {"name": "Conv1D_Stage_2_Block_B_c", "trainable": true, "dtype": "float32", "filters": 126, "kernel_size": [1], "strides": [1], "padding": "valid", "data_format": "channels_last", "dilation_rate": [1], "activation": "linear", "use_bias": true, "kernel_initializer": {"class_name": "GlorotUniform", "config": {"seed": null}}, "bias_initializer": {"class_name": "Zeros", "config": {}}, "kernel_regularizer": null, "bias_regularizer": null, "activity_regularizer": null, "kernel_constraint": null, "bias_constraint": null}, "name": "Conv1D_Stage_2_Block_B_c", "inbound_nodes": [[["tf_op_layer_Relu_45", 0, 0, {}]]]}, {"class_name": "BatchNormalization", "config": {"name": "BN2D_Stage_2_Block_B_c", "trainable": true, "dtype": "float32", "axis": [3], "momentum": 0.99, "epsilon": 0.001, "center": true, "scale": true, "beta_initializer": {"class_name": "Zeros", "config": {}}, "gamma_initializer": {"class_name": "Ones", "config": {}}, "moving_mean_initializer": {"class_name": "Zeros", "config": {}}, "moving_variance_initializer": {"class_name": "Ones", "config": {}}, "beta_regularizer": null, "gamma_regularizer": null, "beta_constraint": null, "gamma_constraint": null}, "name": "BN2D_Stage_2_Block_B_c", "inbound_nodes": [[["Conv2D_Stage_2_Block_B_c", 0, 0, {}]]]}, {"class_name": "BatchNormalization", "config": {"name": "BN1D_Stage_2_Block_B_c", "trainable": true, "dtype": "float32", "axis": [2], "momentum": 0.99, "epsilon": 0.001, "center": true, "scale": true, "beta_initializer": {"class_name": "Zeros", "config": {}}, "gamma_initializer": {"class_name": "Ones", "config": {}}, "moving_mean_initializer": {"class_name": "Zeros", "config": {}}, "moving_variance_initializer": {"class_name": "Ones", "config": {}}, "beta_regularizer": null, "gamma_regularizer": null, "beta_constraint": null, "gamma_constraint": null}, "name": "BN1D_Stage_2_Block_B_c", "inbound_nodes": [[["Conv1D_Stage_2_Block_B_c", 0, 0, {}]]]}, {"class_name": "Add", "config": {"name": "add_1", "trainable": true, "dtype": "float32"}, "name": "add_1", "inbound_nodes": [[["BN2D_Stage_2_Block_B_c", 0, 0, {}], ["tf_op_layer_Relu_3", 0, 0, {}]]]}, {"class_name": "Add", "config": {"name": "add_14", "trainable": true, "dtype": "float32"}, "name": "add_14", "inbound_nodes": [[["BN1D_Stage_2_Block_B_c", 0, 0, {}], ["tf_op_layer_Relu_43", 0, 0, {}]]]}, {"class_name": "TensorFlowOpLayer", "config": {"name": "Relu_6", "trainable": true, "dtype": "float32", "node_def": {"name": "Relu_6", "op": "Relu", "input": ["add_1/Identity"], "attr": {"T": {"type": "DT_FLOAT"}}}, "constants": {}}, "name": "tf_op_layer_Relu_6", "inbound_nodes": [[["add_1", 0, 0, {}]]]}, {"class_name": "TensorFlowOpLayer", "config": {"name": "Relu_46", "trainable": true, "dtype": "float32", "node_def": {"name": "Relu_46", "op": "Relu", "input": ["add_14/Identity"], "attr": {"T": {"type": "DT_FLOAT"}}}, "constants": {}}, "name": "tf_op_layer_Relu_46", "inbound_nodes": [[["add_14", 0, 0, {}]]]}, {"class_name": "Conv2D", "config": {"name": "Conv2D_Stage_2_Block_C_a", "trainable": true, "dtype": "float32", "filters": 32, "kernel_size": [1, 1], "strides": [1, 1], "padding": "valid", "data_format": "channels_last", "dilation_rate": [1, 1], "activation": "linear", "use_bias": true, "kernel_initializer": {"class_name": "GlorotUniform", "config": {"seed": null}}, "bias_initializer": {"class_name": "Zeros", "config": {}}, "kernel_regularizer": null, "bias_regularizer": null, "activity_regularizer": null, "kernel_constraint": null, "bias_constraint": null}, "name": "Conv2D_Stage_2_Block_C_a", "inbound_nodes": [[["tf_op_layer_Relu_6", 0, 0, {}]]]}, {"class_name": "Conv1D", "config": {"name": "Conv1D_Stage_2_Block_C_a", "trainable": true, "dtype": "float32", "filters": 32, "kernel_size": [1], "strides": [1], "padding": "valid", "data_format": "channels_last", "dilation_rate": [1], "activation": "linear", "use_bias": true, "kernel_initializer": {"class_name": "GlorotUniform", "config": {"seed": null}}, "bias_initializer": {"class_name": "Zeros", "config": {}}, "kernel_regularizer": null, "bias_regularizer": null, "activity_regularizer": null, "kernel_constraint": null, "bias_constraint": null}, "name": "Conv1D_Stage_2_Block_C_a", "inbound_nodes": [[["tf_op_layer_Relu_46", 0, 0, {}]]]}, {"class_name": "BatchNormalization", "config": {"name": "BN2D_Stage_2_Block_C_a", "trainable": true, "dtype": "float32", "axis": [3], "momentum": 0.99, "epsilon": 0.001, "center": true, "scale": true, "beta_initializer": {"class_name": "Zeros", "config": {}}, "gamma_initializer": {"class_name": "Ones", "config": {}}, "moving_mean_initializer": {"class_name": "Zeros", "config": {}}, "moving_variance_initializer": {"class_name": "Ones", "config": {}}, "beta_regularizer": null, "gamma_regularizer": null, "beta_constraint": null, "gamma_constraint": null}, "name": "BN2D_Stage_2_Block_C_a", "inbound_nodes": [[["Conv2D_Stage_2_Block_C_a", 0, 0, {}]]]}, {"class_name": "BatchNormalization", "config": {"name": "BN1D_Stage_2_Block_C_a", "trainable": true, "dtype": "float32", "axis": [2], "momentum": 0.99, "epsilon": 0.001, "center": true, "scale": true, "beta_initializer": {"class_name": "Zeros", "config": {}}, "gamma_initializer": {"class_name": "Ones", "config": {}}, "moving_mean_initializer": {"class_name": "Zeros", "config": {}}, "moving_variance_initializer": {"class_name": "Ones", "config": {}}, "beta_regularizer": null, "gamma_regularizer": null, "beta_constraint": null, "gamma_constraint": null}, "name": "BN1D_Stage_2_Block_C_a", "inbound_nodes": [[["Conv1D_Stage_2_Block_C_a", 0, 0, {}]]]}, {"class_name": "TensorFlowOpLayer", "config": {"name": "Relu_7", "trainable": true, "dtype": "float32", "node_def": {"name": "Relu_7", "op": "Relu", "input": ["BN2D_Stage_2_Block_C_a/Identity"], "attr": {"T": {"type": "DT_FLOAT"}}}, "constants": {}}, "name": "tf_op_layer_Relu_7", "inbound_nodes": [[["BN2D_Stage_2_Block_C_a", 0, 0, {}]]]}, {"class_name": "TensorFlowOpLayer", "config": {"name": "Relu_47", "trainable": true, "dtype": "float32", "node_def": {"name": "Relu_47", "op": "Relu", "input": ["BN1D_Stage_2_Block_C_a/Identity"], "attr": {"T": {"type": "DT_FLOAT"}}}, "constants": {}}, "name": "tf_op_layer_Relu_47", "inbound_nodes": [[["BN1D_Stage_2_Block_C_a", 0, 0, {}]]]}, {"class_name": "Conv2D", "config": {"name": "Conv2D_Stage_2_Block_C_b", "trainable": true, "dtype": "float32", "filters": 32, "kernel_size": [3, 3], "strides": [1, 1], "padding": "same", "data_format": "channels_last", "dilation_rate": [1, 1], "activation": "linear", "use_bias": true, "kernel_initializer": {"class_name": "GlorotUniform", "config": {"seed": null}}, "bias_initializer": {"class_name": "Zeros", "config": {}}, "kernel_regularizer": null, "bias_regularizer": null, "activity_regularizer": null, "kernel_constraint": null, "bias_constraint": null}, "name": "Conv2D_Stage_2_Block_C_b", "inbound_nodes": [[["tf_op_layer_Relu_7", 0, 0, {}]]]}, {"class_name": "Conv1D", "config": {"name": "Conv1D_Stage_2_Block_C_b", "trainable": true, "dtype": "float32", "filters": 32, "kernel_size": [3], "strides": [1], "padding": "same", "data_format": "channels_last", "dilation_rate": [1], "activation": "linear", "use_bias": true, "kernel_initializer": {"class_name": "GlorotUniform", "config": {"seed": null}}, "bias_initializer": {"class_name": "Zeros", "config": {}}, "kernel_regularizer": null, "bias_regularizer": null, "activity_regularizer": null, "kernel_constraint": null, "bias_constraint": null}, "name": "Conv1D_Stage_2_Block_C_b", "inbound_nodes": [[["tf_op_layer_Relu_47", 0, 0, {}]]]}, {"class_name": "BatchNormalization", "config": {"name": "BN2D_Stage_2_Block_C_b", "trainable": true, "dtype": "float32", "axis": [3], "momentum": 0.99, "epsilon": 0.001, "center": true, "scale": true, "beta_initializer": {"class_name": "Zeros", "config": {}}, "gamma_initializer": {"class_name": "Ones", "config": {}}, "moving_mean_initializer": {"class_name": "Zeros", "config": {}}, "moving_variance_initializer": {"class_name": "Ones", "config": {}}, "beta_regularizer": null, "gamma_regularizer": null, "beta_constraint": null, "gamma_constraint": null}, "name": "BN2D_Stage_2_Block_C_b", "inbound_nodes": [[["Conv2D_Stage_2_Block_C_b", 0, 0, {}]]]}, {"class_name": "BatchNormalization", "config": {"name": "BN1D_Stage_2_Block_C_b", "trainable": true, "dtype": "float32", "axis": [2], "momentum": 0.99, "epsilon": 0.001, "center": true, "scale": true, "beta_initializer": {"class_name": "Zeros", "config": {}}, "gamma_initializer": {"class_name": "Ones", "config": {}}, "moving_mean_initializer": {"class_name": "Zeros", "config": {}}, "moving_variance_initializer": {"class_name": "Ones", "config": {}}, "beta_regularizer": null, "gamma_regularizer": null, "beta_constraint": null, "gamma_constraint": null}, "name": "BN1D_Stage_2_Block_C_b", "inbound_nodes": [[["Conv1D_Stage_2_Block_C_b", 0, 0, {}]]]}, {"class_name": "TensorFlowOpLayer", "config": {"name": "Relu_8", "trainable": true, "dtype": "float32", "node_def": {"name": "Relu_8", "op": "Relu", "input": ["BN2D_Stage_2_Block_C_b/Identity"], "attr": {"T": {"type": "DT_FLOAT"}}}, "constants": {}}, "name": "tf_op_layer_Relu_8", "inbound_nodes": [[["BN2D_Stage_2_Block_C_b", 0, 0, {}]]]}, {"class_name": "TensorFlowOpLayer", "config": {"name": "Relu_48", "trainable": true, "dtype": "float32", "node_def": {"name": "Relu_48", "op": "Relu", "input": ["BN1D_Stage_2_Block_C_b/Identity"], "attr": {"T": {"type": "DT_FLOAT"}}}, "constants": {}}, "name": "tf_op_layer_Relu_48", "inbound_nodes": [[["BN1D_Stage_2_Block_C_b", 0, 0, {}]]]}, {"class_name": "Conv2D", "config": {"name": "Conv2D_Stage_2_Block_C_c", "trainable": true, "dtype": "float32", "filters": 126, "kernel_size": [1, 1], "strides": [1, 1], "padding": "valid", "data_format": "channels_last", "dilation_rate": [1, 1], "activation": "linear", "use_bias": true, "kernel_initializer": {"class_name": "GlorotUniform", "config": {"seed": null}}, "bias_initializer": {"class_name": "Zeros", "config": {}}, "kernel_regularizer": null, "bias_regularizer": null, "activity_regularizer": null, "kernel_constraint": null, "bias_constraint": null}, "name": "Conv2D_Stage_2_Block_C_c", "inbound_nodes": [[["tf_op_layer_Relu_8", 0, 0, {}]]]}, {"class_name": "Conv1D", "config": {"name": "Conv1D_Stage_2_Block_C_c", "trainable": true, "dtype": "float32", "filters": 126, "kernel_size": [1], "strides": [1], "padding": "valid", "data_format": "channels_last", "dilation_rate": [1], "activation": "linear", "use_bias": true, "kernel_initializer": {"class_name": "GlorotUniform", "config": {"seed": null}}, "bias_initializer": {"class_name": "Zeros", "config": {}}, "kernel_regularizer": null, "bias_regularizer": null, "activity_regularizer": null, "kernel_constraint": null, "bias_constraint": null}, "name": "Conv1D_Stage_2_Block_C_c", "inbound_nodes": [[["tf_op_layer_Relu_48", 0, 0, {}]]]}, {"class_name": "BatchNormalization", "config": {"name": "BN2D_Stage_2_Block_C_c", "trainable": true, "dtype": "float32", "axis": [3], "momentum": 0.99, "epsilon": 0.001, "center": true, "scale": true, "beta_initializer": {"class_name": "Zeros", "config": {}}, "gamma_initializer": {"class_name": "Ones", "config": {}}, "moving_mean_initializer": {"class_name": "Zeros", "config": {}}, "moving_variance_initializer": {"class_name": "Ones", "config": {}}, "beta_regularizer": null, "gamma_regularizer": null, "beta_constraint": null, "gamma_constraint": null}, "name": "BN2D_Stage_2_Block_C_c", "inbound_nodes": [[["Conv2D_Stage_2_Block_C_c", 0, 0, {}]]]}, {"class_name": "BatchNormalization", "config": {"name": "BN1D_Stage_2_Block_C_c", "trainable": true, "dtype": "float32", "axis": [2], "momentum": 0.99, "epsilon": 0.001, "center": true, "scale": true, "beta_initializer": {"class_name": "Zeros", "config": {}}, "gamma_initializer": {"class_name": "Ones", "config": {}}, "moving_mean_initializer": {"class_name": "Zeros", "config": {}}, "moving_variance_initializer": {"class_name": "Ones", "config": {}}, "beta_regularizer": null, "gamma_regularizer": null, "beta_constraint": null, "gamma_constraint": null}, "name": "BN1D_Stage_2_Block_C_c", "inbound_nodes": [[["Conv1D_Stage_2_Block_C_c", 0, 0, {}]]]}, {"class_name": "Add", "config": {"name": "add_2", "trainable": true, "dtype": "float32"}, "name": "add_2", "inbound_nodes": [[["BN2D_Stage_2_Block_C_c", 0, 0, {}], ["tf_op_layer_Relu_6", 0, 0, {}]]]}, {"class_name": "Add", "config": {"name": "add_15", "trainable": true, "dtype": "float32"}, "name": "add_15", "inbound_nodes": [[["BN1D_Stage_2_Block_C_c", 0, 0, {}], ["tf_op_layer_Relu_46", 0, 0, {}]]]}, {"class_name": "TensorFlowOpLayer", "config": {"name": "Relu_9", "trainable": true, "dtype": "float32", "node_def": {"name": "Relu_9", "op": "Relu", "input": ["add_2/Identity"], "attr": {"T": {"type": "DT_FLOAT"}}}, "constants": {}}, "name": "tf_op_layer_Relu_9", "inbound_nodes": [[["add_2", 0, 0, {}]]]}, {"class_name": "TensorFlowOpLayer", "config": {"name": "Relu_49", "trainable": true, "dtype": "float32", "node_def": {"name": "Relu_49", "op": "Relu", "input": ["add_15/Identity"], "attr": {"T": {"type": "DT_FLOAT"}}}, "constants": {}}, "name": "tf_op_layer_Relu_49", "inbound_nodes": [[["add_15", 0, 0, {}]]]}, {"class_name": "Conv2D", "config": {"name": "Conv2D_Stage_3_Block_A_a", "trainable": true, "dtype": "float32", "filters": 64, "kernel_size": [1, 1], "strides": [2, 2], "padding": "valid", "data_format": "channels_last", "dilation_rate": [1, 1], "activation": "linear", "use_bias": true, "kernel_initializer": {"class_name": "GlorotUniform", "config": {"seed": null}}, "bias_initializer": {"class_name": "Zeros", "config": {}}, "kernel_regularizer": null, "bias_regularizer": null, "activity_regularizer": null, "kernel_constraint": null, "bias_constraint": null}, "name": "Conv2D_Stage_3_Block_A_a", "inbound_nodes": [[["tf_op_layer_Relu_9", 0, 0, {}]]]}, {"class_name": "Conv1D", "config": {"name": "Conv1D_Stage_3_Block_A_a", "trainable": true, "dtype": "float32", "filters": 64, "kernel_size": [1], "strides": [2], "padding": "valid", "data_format": "channels_last", "dilation_rate": [1], "activation": "linear", "use_bias": true, "kernel_initializer": {"class_name": "GlorotUniform", "config": {"seed": null}}, "bias_initializer": {"class_name": "Zeros", "config": {}}, "kernel_regularizer": null, "bias_regularizer": null, "activity_regularizer": null, "kernel_constraint": null, "bias_constraint": null}, "name": "Conv1D_Stage_3_Block_A_a", "inbound_nodes": [[["tf_op_layer_Relu_49", 0, 0, {}]]]}, {"class_name": "BatchNormalization", "config": {"name": "BN2D_Stage_3_Block_A_a", "trainable": true, "dtype": "float32", "axis": [3], "momentum": 0.99, "epsilon": 0.001, "center": true, "scale": true, "beta_initializer": {"class_name": "Zeros", "config": {}}, "gamma_initializer": {"class_name": "Ones", "config": {}}, "moving_mean_initializer": {"class_name": "Zeros", "config": {}}, "moving_variance_initializer": {"class_name": "Ones", "config": {}}, "beta_regularizer": null, "gamma_regularizer": null, "beta_constraint": null, "gamma_constraint": null}, "name": "BN2D_Stage_3_Block_A_a", "inbound_nodes": [[["Conv2D_Stage_3_Block_A_a", 0, 0, {}]]]}, {"class_name": "BatchNormalization", "config": {"name": "BN1D_Stage_3_Block_A_a", "trainable": true, "dtype": "float32", "axis": [2], "momentum": 0.99, "epsilon": 0.001, "center": true, "scale": true, "beta_initializer": {"class_name": "Zeros", "config": {}}, "gamma_initializer": {"class_name": "Ones", "config": {}}, "moving_mean_initializer": {"class_name": "Zeros", "config": {}}, "moving_variance_initializer": {"class_name": "Ones", "config": {}}, "beta_regularizer": null, "gamma_regularizer": null, "beta_constraint": null, "gamma_constraint": null}, "name": "BN1D_Stage_3_Block_A_a", "inbound_nodes": [[["Conv1D_Stage_3_Block_A_a", 0, 0, {}]]]}, {"class_name": "TensorFlowOpLayer", "config": {"name": "Relu_10", "trainable": true, "dtype": "float32", "node_def": {"name": "Relu_10", "op": "Relu", "input": ["BN2D_Stage_3_Block_A_a/Identity"], "attr": {"T": {"type": "DT_FLOAT"}}}, "constants": {}}, "name": "tf_op_layer_Relu_10", "inbound_nodes": [[["BN2D_Stage_3_Block_A_a", 0, 0, {}]]]}, {"class_name": "TensorFlowOpLayer", "config": {"name": "Relu_50", "trainable": true, "dtype": "float32", "node_def": {"name": "Relu_50", "op": "Relu", "input": ["BN1D_Stage_3_Block_A_a/Identity"], "attr": {"T": {"type": "DT_FLOAT"}}}, "constants": {}}, "name": "tf_op_layer_Relu_50", "inbound_nodes": [[["BN1D_Stage_3_Block_A_a", 0, 0, {}]]]}, {"class_name": "Conv2D", "config": {"name": "Conv2D_Stage_3_Block_A_b", "trainable": true, "dtype": "float32", "filters": 64, "kernel_size": [3, 3], "strides": [1, 1], "padding": "same", "data_format": "channels_last", "dilation_rate": [1, 1], "activation": "linear", "use_bias": true, "kernel_initializer": {"class_name": "GlorotUniform", "config": {"seed": null}}, "bias_initializer": {"class_name": "Zeros", "config": {}}, "kernel_regularizer": null, "bias_regularizer": null, "activity_regularizer": null, "kernel_constraint": null, "bias_constraint": null}, "name": "Conv2D_Stage_3_Block_A_b", "inbound_nodes": [[["tf_op_layer_Relu_10", 0, 0, {}]]]}, {"class_name": "Conv1D", "config": {"name": "Conv1D_Stage_3_Block_A_b", "trainable": true, "dtype": "float32", "filters": 64, "kernel_size": [3], "strides": [1], "padding": "same", "data_format": "channels_last", "dilation_rate": [1], "activation": "linear", "use_bias": true, "kernel_initializer": {"class_name": "GlorotUniform", "config": {"seed": null}}, "bias_initializer": {"class_name": "Zeros", "config": {}}, "kernel_regularizer": null, "bias_regularizer": null, "activity_regularizer": null, "kernel_constraint": null, "bias_constraint": null}, "name": "Conv1D_Stage_3_Block_A_b", "inbound_nodes": [[["tf_op_layer_Relu_50", 0, 0, {}]]]}, {"class_name": "BatchNormalization", "config": {"name": "BN2D_Stage_3_Block_A_b", "trainable": true, "dtype": "float32", "axis": [3], "momentum": 0.99, "epsilon": 0.001, "center": true, "scale": true, "beta_initializer": {"class_name": "Zeros", "config": {}}, "gamma_initializer": {"class_name": "Ones", "config": {}}, "moving_mean_initializer": {"class_name": "Zeros", "config": {}}, "moving_variance_initializer": {"class_name": "Ones", "config": {}}, "beta_regularizer": null, "gamma_regularizer": null, "beta_constraint": null, "gamma_constraint": null}, "name": "BN2D_Stage_3_Block_A_b", "inbound_nodes": [[["Conv2D_Stage_3_Block_A_b", 0, 0, {}]]]}, {"class_name": "BatchNormalization", "config": {"name": "BN1D_Stage_3_Block_A_b", "trainable": true, "dtype": "float32", "axis": [2], "momentum": 0.99, "epsilon": 0.001, "center": true, "scale": true, "beta_initializer": {"class_name": "Zeros", "config": {}}, "gamma_initializer": {"class_name": "Ones", "config": {}}, "moving_mean_initializer": {"class_name": "Zeros", "config": {}}, "moving_variance_initializer": {"class_name": "Ones", "config": {}}, "beta_regularizer": null, "gamma_regularizer": null, "beta_constraint": null, "gamma_constraint": null}, "name": "BN1D_Stage_3_Block_A_b", "inbound_nodes": [[["Conv1D_Stage_3_Block_A_b", 0, 0, {}]]]}, {"class_name": "TensorFlowOpLayer", "config": {"name": "Relu_11", "trainable": true, "dtype": "float32", "node_def": {"name": "Relu_11", "op": "Relu", "input": ["BN2D_Stage_3_Block_A_b/Identity"], "attr": {"T": {"type": "DT_FLOAT"}}}, "constants": {}}, "name": "tf_op_layer_Relu_11", "inbound_nodes": [[["BN2D_Stage_3_Block_A_b", 0, 0, {}]]]}, {"class_name": "TensorFlowOpLayer", "config": {"name": "Relu_51", "trainable": true, "dtype": "float32", "node_def": {"name": "Relu_51", "op": "Relu", "input": ["BN1D_Stage_3_Block_A_b/Identity"], "attr": {"T": {"type": "DT_FLOAT"}}}, "constants": {}}, "name": "tf_op_layer_Relu_51", "inbound_nodes": [[["BN1D_Stage_3_Block_A_b", 0, 0, {}]]]}, {"class_name": "Conv2D", "config": {"name": "Conv2D_Stage_3_Block_A_c", "trainable": true, "dtype": "float32", "filters": 256, "kernel_size": [1, 1], "strides": [1, 1], "padding": "valid", "data_format": "channels_last", "dilation_rate": [1, 1], "activation": "linear", "use_bias": true, "kernel_initializer": {"class_name": "GlorotUniform", "config": {"seed": null}}, "bias_initializer": {"class_name": "Zeros", "config": {}}, "kernel_regularizer": null, "bias_regularizer": null, "activity_regularizer": null, "kernel_constraint": null, "bias_constraint": null}, "name": "Conv2D_Stage_3_Block_A_c", "inbound_nodes": [[["tf_op_layer_Relu_11", 0, 0, {}]]]}, {"class_name": "Conv2D", "config": {"name": "Conv2D_Stage_3_Block_A_shortcut", "trainable": true, "dtype": "float32", "filters": 256, "kernel_size": [1, 1], "strides": [2, 2], "padding": "valid", "data_format": "channels_last", "dilation_rate": [1, 1], "activation": "linear", "use_bias": true, "kernel_initializer": {"class_name": "GlorotUniform", "config": {"seed": null}}, "bias_initializer": {"class_name": "Zeros", "config": {}}, "kernel_regularizer": null, "bias_regularizer": null, "activity_regularizer": null, "kernel_constraint": null, "bias_constraint": null}, "name": "Conv2D_Stage_3_Block_A_shortcut", "inbound_nodes": [[["tf_op_layer_Relu_9", 0, 0, {}]]]}, {"class_name": "Conv1D", "config": {"name": "Conv1D_Stage_3_Block_A_c", "trainable": true, "dtype": "float32", "filters": 256, "kernel_size": [1], "strides": [1], "padding": "valid", "data_format": "channels_last", "dilation_rate": [1], "activation": "linear", "use_bias": true, "kernel_initializer": {"class_name": "GlorotUniform", "config": {"seed": null}}, "bias_initializer": {"class_name": "Zeros", "config": {}}, "kernel_regularizer": null, "bias_regularizer": null, "activity_regularizer": null, "kernel_constraint": null, "bias_constraint": null}, "name": "Conv1D_Stage_3_Block_A_c", "inbound_nodes": [[["tf_op_layer_Relu_51", 0, 0, {}]]]}, {"class_name": "Conv1D", "config": {"name": "Conv1D_Stage_3_Block_A_shortcut", "trainable": true, "dtype": "float32", "filters": 256, "kernel_size": [1], "strides": [2], "padding": "valid", "data_format": "channels_last", "dilation_rate": [1], "activation": "linear", "use_bias": true, "kernel_initializer": {"class_name": "GlorotUniform", "config": {"seed": null}}, "bias_initializer": {"class_name": "Zeros", "config": {}}, "kernel_regularizer": null, "bias_regularizer": null, "activity_regularizer": null, "kernel_constraint": null, "bias_constraint": null}, "name": "Conv1D_Stage_3_Block_A_shortcut", "inbound_nodes": [[["tf_op_layer_Relu_49", 0, 0, {}]]]}, {"class_name": "BatchNormalization", "config": {"name": "BN2D_Stage_3_Block_A_c", "trainable": true, "dtype": "float32", "axis": [3], "momentum": 0.99, "epsilon": 0.001, "center": true, "scale": true, "beta_initializer": {"class_name": "Zeros", "config": {}}, "gamma_initializer": {"class_name": "Ones", "config": {}}, "moving_mean_initializer": {"class_name": "Zeros", "config": {}}, "moving_variance_initializer": {"class_name": "Ones", "config": {}}, "beta_regularizer": null, "gamma_regularizer": null, "beta_constraint": null, "gamma_constraint": null}, "name": "BN2D_Stage_3_Block_A_c", "inbound_nodes": [[["Conv2D_Stage_3_Block_A_c", 0, 0, {}]]]}, {"class_name": "BatchNormalization", "config": {"name": "BN2D_Stage_3_Block_A_shortcut", "trainable": true, "dtype": "float32", "axis": [3], "momentum": 0.99, "epsilon": 0.001, "center": true, "scale": true, "beta_initializer": {"class_name": "Zeros", "config": {}}, "gamma_initializer": {"class_name": "Ones", "config": {}}, "moving_mean_initializer": {"class_name": "Zeros", "config": {}}, "moving_variance_initializer": {"class_name": "Ones", "config": {}}, "beta_regularizer": null, "gamma_regularizer": null, "beta_constraint": null, "gamma_constraint": null}, "name": "BN2D_Stage_3_Block_A_shortcut", "inbound_nodes": [[["Conv2D_Stage_3_Block_A_shortcut", 0, 0, {}]]]}, {"class_name": "BatchNormalization", "config": {"name": "BN1D_Stage_3_Block_A_c", "trainable": true, "dtype": "float32", "axis": [2], "momentum": 0.99, "epsilon": 0.001, "center": true, "scale": true, "beta_initializer": {"class_name": "Zeros", "config": {}}, "gamma_initializer": {"class_name": "Ones", "config": {}}, "moving_mean_initializer": {"class_name": "Zeros", "config": {}}, "moving_variance_initializer": {"class_name": "Ones", "config": {}}, "beta_regularizer": null, "gamma_regularizer": null, "beta_constraint": null, "gamma_constraint": null}, "name": "BN1D_Stage_3_Block_A_c", "inbound_nodes": [[["Conv1D_Stage_3_Block_A_c", 0, 0, {}]]]}, {"class_name": "BatchNormalization", "config": {"name": "BN1D_Stage_3_Block_A_shortcut", "trainable": true, "dtype": "float32", "axis": [2], "momentum": 0.99, "epsilon": 0.001, "center": true, "scale": true, "beta_initializer": {"class_name": "Zeros", "config": {}}, "gamma_initializer": {"class_name": "Ones", "config": {}}, "moving_mean_initializer": {"class_name": "Zeros", "config": {}}, "moving_variance_initializer": {"class_name": "Ones", "config": {}}, "beta_regularizer": null, "gamma_regularizer": null, "beta_constraint": null, "gamma_constraint": null}, "name": "BN1D_Stage_3_Block_A_shortcut", "inbound_nodes": [[["Conv1D_Stage_3_Block_A_shortcut", 0, 0, {}]]]}, {"class_name": "Add", "config": {"name": "add_3", "trainable": true, "dtype": "float32"}, "name": "add_3", "inbound_nodes": [[["BN2D_Stage_3_Block_A_c", 0, 0, {}], ["BN2D_Stage_3_Block_A_shortcut", 0, 0, {}]]]}, {"class_name": "Add", "config": {"name": "add_16", "trainable": true, "dtype": "float32"}, "name": "add_16", "inbound_nodes": [[["BN1D_Stage_3_Block_A_c", 0, 0, {}], ["BN1D_Stage_3_Block_A_shortcut", 0, 0, {}]]]}, {"class_name": "TensorFlowOpLayer", "config": {"name": "Relu_12", "trainable": true, "dtype": "float32", "node_def": {"name": "Relu_12", "op": "Relu", "input": ["add_3/Identity"], "attr": {"T": {"type": "DT_FLOAT"}}}, "constants": {}}, "name": "tf_op_layer_Relu_12", "inbound_nodes": [[["add_3", 0, 0, {}]]]}, {"class_name": "TensorFlowOpLayer", "config": {"name": "Relu_52", "trainable": true, "dtype": "float32", "node_def": {"name": "Relu_52", "op": "Relu", "input": ["add_16/Identity"], "attr": {"T": {"type": "DT_FLOAT"}}}, "constants": {}}, "name": "tf_op_layer_Relu_52", "inbound_nodes": [[["add_16", 0, 0, {}]]]}, {"class_name": "Conv2D", "config": {"name": "Conv2D_Stage_3_Block_B_a", "trainable": true, "dtype": "float32", "filters": 64, "kernel_size": [1, 1], "strides": [1, 1], "padding": "valid", "data_format": "channels_last", "dilation_rate": [1, 1], "activation": "linear", "use_bias": true, "kernel_initializer": {"class_name": "GlorotUniform", "config": {"seed": null}}, "bias_initializer": {"class_name": "Zeros", "config": {}}, "kernel_regularizer": null, "bias_regularizer": null, "activity_regularizer": null, "kernel_constraint": null, "bias_constraint": null}, "name": "Conv2D_Stage_3_Block_B_a", "inbound_nodes": [[["tf_op_layer_Relu_12", 0, 0, {}]]]}, {"class_name": "Conv1D", "config": {"name": "Conv1D_Stage_3_Block_B_a", "trainable": true, "dtype": "float32", "filters": 64, "kernel_size": [1], "strides": [1], "padding": "valid", "data_format": "channels_last", "dilation_rate": [1], "activation": "linear", "use_bias": true, "kernel_initializer": {"class_name": "GlorotUniform", "config": {"seed": null}}, "bias_initializer": {"class_name": "Zeros", "config": {}}, "kernel_regularizer": null, "bias_regularizer": null, "activity_regularizer": null, "kernel_constraint": null, "bias_constraint": null}, "name": "Conv1D_Stage_3_Block_B_a", "inbound_nodes": [[["tf_op_layer_Relu_52", 0, 0, {}]]]}, {"class_name": "BatchNormalization", "config": {"name": "BN2D_Stage_3_Block_B_a", "trainable": true, "dtype": "float32", "axis": [3], "momentum": 0.99, "epsilon": 0.001, "center": true, "scale": true, "beta_initializer": {"class_name": "Zeros", "config": {}}, "gamma_initializer": {"class_name": "Ones", "config": {}}, "moving_mean_initializer": {"class_name": "Zeros", "config": {}}, "moving_variance_initializer": {"class_name": "Ones", "config": {}}, "beta_regularizer": null, "gamma_regularizer": null, "beta_constraint": null, "gamma_constraint": null}, "name": "BN2D_Stage_3_Block_B_a", "inbound_nodes": [[["Conv2D_Stage_3_Block_B_a", 0, 0, {}]]]}, {"class_name": "BatchNormalization", "config": {"name": "BN1D_Stage_3_Block_B_a", "trainable": true, "dtype": "float32", "axis": [2], "momentum": 0.99, "epsilon": 0.001, "center": true, "scale": true, "beta_initializer": {"class_name": "Zeros", "config": {}}, "gamma_initializer": {"class_name": "Ones", "config": {}}, "moving_mean_initializer": {"class_name": "Zeros", "config": {}}, "moving_variance_initializer": {"class_name": "Ones", "config": {}}, "beta_regularizer": null, "gamma_regularizer": null, "beta_constraint": null, "gamma_constraint": null}, "name": "BN1D_Stage_3_Block_B_a", "inbound_nodes": [[["Conv1D_Stage_3_Block_B_a", 0, 0, {}]]]}, {"class_name": "TensorFlowOpLayer", "config": {"name": "Relu_13", "trainable": true, "dtype": "float32", "node_def": {"name": "Relu_13", "op": "Relu", "input": ["BN2D_Stage_3_Block_B_a/Identity"], "attr": {"T": {"type": "DT_FLOAT"}}}, "constants": {}}, "name": "tf_op_layer_Relu_13", "inbound_nodes": [[["BN2D_Stage_3_Block_B_a", 0, 0, {}]]]}, {"class_name": "TensorFlowOpLayer", "config": {"name": "Relu_53", "trainable": true, "dtype": "float32", "node_def": {"name": "Relu_53", "op": "Relu", "input": ["BN1D_Stage_3_Block_B_a/Identity"], "attr": {"T": {"type": "DT_FLOAT"}}}, "constants": {}}, "name": "tf_op_layer_Relu_53", "inbound_nodes": [[["BN1D_Stage_3_Block_B_a", 0, 0, {}]]]}, {"class_name": "Conv2D", "config": {"name": "Conv2D_Stage_3_Block_B_b", "trainable": true, "dtype": "float32", "filters": 64, "kernel_size": [3, 3], "strides": [1, 1], "padding": "same", "data_format": "channels_last", "dilation_rate": [1, 1], "activation": "linear", "use_bias": true, "kernel_initializer": {"class_name": "GlorotUniform", "config": {"seed": null}}, "bias_initializer": {"class_name": "Zeros", "config": {}}, "kernel_regularizer": null, "bias_regularizer": null, "activity_regularizer": null, "kernel_constraint": null, "bias_constraint": null}, "name": "Conv2D_Stage_3_Block_B_b", "inbound_nodes": [[["tf_op_layer_Relu_13", 0, 0, {}]]]}, {"class_name": "Conv1D", "config": {"name": "Conv1D_Stage_3_Block_B_b", "trainable": true, "dtype": "float32", "filters": 64, "kernel_size": [3], "strides": [1], "padding": "same", "data_format": "channels_last", "dilation_rate": [1], "activation": "linear", "use_bias": true, "kernel_initializer": {"class_name": "GlorotUniform", "config": {"seed": null}}, "bias_initializer": {"class_name": "Zeros", "config": {}}, "kernel_regularizer": null, "bias_regularizer": null, "activity_regularizer": null, "kernel_constraint": null, "bias_constraint": null}, "name": "Conv1D_Stage_3_Block_B_b", "inbound_nodes": [[["tf_op_layer_Relu_53", 0, 0, {}]]]}, {"class_name": "BatchNormalization", "config": {"name": "BN2D_Stage_3_Block_B_b", "trainable": true, "dtype": "float32", "axis": [3], "momentum": 0.99, "epsilon": 0.001, "center": true, "scale": true, "beta_initializer": {"class_name": "Zeros", "config": {}}, "gamma_initializer": {"class_name": "Ones", "config": {}}, "moving_mean_initializer": {"class_name": "Zeros", "config": {}}, "moving_variance_initializer": {"class_name": "Ones", "config": {}}, "beta_regularizer": null, "gamma_regularizer": null, "beta_constraint": null, "gamma_constraint": null}, "name": "BN2D_Stage_3_Block_B_b", "inbound_nodes": [[["Conv2D_Stage_3_Block_B_b", 0, 0, {}]]]}, {"class_name": "BatchNormalization", "config": {"name": "BN1D_Stage_3_Block_B_b", "trainable": true, "dtype": "float32", "axis": [2], "momentum": 0.99, "epsilon": 0.001, "center": true, "scale": true, "beta_initializer": {"class_name": "Zeros", "config": {}}, "gamma_initializer": {"class_name": "Ones", "config": {}}, "moving_mean_initializer": {"class_name": "Zeros", "config": {}}, "moving_variance_initializer": {"class_name": "Ones", "config": {}}, "beta_regularizer": null, "gamma_regularizer": null, "beta_constraint": null, "gamma_constraint": null}, "name": "BN1D_Stage_3_Block_B_b", "inbound_nodes": [[["Conv1D_Stage_3_Block_B_b", 0, 0, {}]]]}, {"class_name": "TensorFlowOpLayer", "config": {"name": "Relu_14", "trainable": true, "dtype": "float32", "node_def": {"name": "Relu_14", "op": "Relu", "input": ["BN2D_Stage_3_Block_B_b/Identity"], "attr": {"T": {"type": "DT_FLOAT"}}}, "constants": {}}, "name": "tf_op_layer_Relu_14", "inbound_nodes": [[["BN2D_Stage_3_Block_B_b", 0, 0, {}]]]}, {"class_name": "TensorFlowOpLayer", "config": {"name": "Relu_54", "trainable": true, "dtype": "float32", "node_def": {"name": "Relu_54", "op": "Relu", "input": ["BN1D_Stage_3_Block_B_b/Identity"], "attr": {"T": {"type": "DT_FLOAT"}}}, "constants": {}}, "name": "tf_op_layer_Relu_54", "inbound_nodes": [[["BN1D_Stage_3_Block_B_b", 0, 0, {}]]]}, {"class_name": "Conv2D", "config": {"name": "Conv2D_Stage_3_Block_B_c", "trainable": true, "dtype": "float32", "filters": 256, "kernel_size": [1, 1], "strides": [1, 1], "padding": "valid", "data_format": "channels_last", "dilation_rate": [1, 1], "activation": "linear", "use_bias": true, "kernel_initializer": {"class_name": "GlorotUniform", "config": {"seed": null}}, "bias_initializer": {"class_name": "Zeros", "config": {}}, "kernel_regularizer": null, "bias_regularizer": null, "activity_regularizer": null, "kernel_constraint": null, "bias_constraint": null}, "name": "Conv2D_Stage_3_Block_B_c", "inbound_nodes": [[["tf_op_layer_Relu_14", 0, 0, {}]]]}, {"class_name": "Conv1D", "config": {"name": "Conv1D_Stage_3_Block_B_c", "trainable": true, "dtype": "float32", "filters": 256, "kernel_size": [1], "strides": [1], "padding": "valid", "data_format": "channels_last", "dilation_rate": [1], "activation": "linear", "use_bias": true, "kernel_initializer": {"class_name": "GlorotUniform", "config": {"seed": null}}, "bias_initializer": {"class_name": "Zeros", "config": {}}, "kernel_regularizer": null, "bias_regularizer": null, "activity_regularizer": null, "kernel_constraint": null, "bias_constraint": null}, "name": "Conv1D_Stage_3_Block_B_c", "inbound_nodes": [[["tf_op_layer_Relu_54", 0, 0, {}]]]}, {"class_name": "BatchNormalization", "config": {"name": "BN2D_Stage_3_Block_B_c", "trainable": true, "dtype": "float32", "axis": [3], "momentum": 0.99, "epsilon": 0.001, "center": true, "scale": true, "beta_initializer": {"class_name": "Zeros", "config": {}}, "gamma_initializer": {"class_name": "Ones", "config": {}}, "moving_mean_initializer": {"class_name": "Zeros", "config": {}}, "moving_variance_initializer": {"class_name": "Ones", "config": {}}, "beta_regularizer": null, "gamma_regularizer": null, "beta_constraint": null, "gamma_constraint": null}, "name": "BN2D_Stage_3_Block_B_c", "inbound_nodes": [[["Conv2D_Stage_3_Block_B_c", 0, 0, {}]]]}, {"class_name": "BatchNormalization", "config": {"name": "BN1D_Stage_3_Block_B_c", "trainable": true, "dtype": "float32", "axis": [2], "momentum": 0.99, "epsilon": 0.001, "center": true, "scale": true, "beta_initializer": {"class_name": "Zeros", "config": {}}, "gamma_initializer": {"class_name": "Ones", "config": {}}, "moving_mean_initializer": {"class_name": "Zeros", "config": {}}, "moving_variance_initializer": {"class_name": "Ones", "config": {}}, "beta_regularizer": null, "gamma_regularizer": null, "beta_constraint": null, "gamma_constraint": null}, "name": "BN1D_Stage_3_Block_B_c", "inbound_nodes": [[["Conv1D_Stage_3_Block_B_c", 0, 0, {}]]]}, {"class_name": "Add", "config": {"name": "add_4", "trainable": true, "dtype": "float32"}, "name": "add_4", "inbound_nodes": [[["BN2D_Stage_3_Block_B_c", 0, 0, {}], ["tf_op_layer_Relu_12", 0, 0, {}]]]}, {"class_name": "Add", "config": {"name": "add_17", "trainable": true, "dtype": "float32"}, "name": "add_17", "inbound_nodes": [[["BN1D_Stage_3_Block_B_c", 0, 0, {}], ["tf_op_layer_Relu_52", 0, 0, {}]]]}, {"class_name": "TensorFlowOpLayer", "config": {"name": "Relu_15", "trainable": true, "dtype": "float32", "node_def": {"name": "Relu_15", "op": "Relu", "input": ["add_4/Identity"], "attr": {"T": {"type": "DT_FLOAT"}}}, "constants": {}}, "name": "tf_op_layer_Relu_15", "inbound_nodes": [[["add_4", 0, 0, {}]]]}, {"class_name": "TensorFlowOpLayer", "config": {"name": "Relu_55", "trainable": true, "dtype": "float32", "node_def": {"name": "Relu_55", "op": "Relu", "input": ["add_17/Identity"], "attr": {"T": {"type": "DT_FLOAT"}}}, "constants": {}}, "name": "tf_op_layer_Relu_55", "inbound_nodes": [[["add_17", 0, 0, {}]]]}, {"class_name": "Conv2D", "config": {"name": "Conv2D_Stage_3_Block_C_a", "trainable": true, "dtype": "float32", "filters": 64, "kernel_size": [1, 1], "strides": [1, 1], "padding": "valid", "data_format": "channels_last", "dilation_rate": [1, 1], "activation": "linear", "use_bias": true, "kernel_initializer": {"class_name": "GlorotUniform", "config": {"seed": null}}, "bias_initializer": {"class_name": "Zeros", "config": {}}, "kernel_regularizer": null, "bias_regularizer": null, "activity_regularizer": null, "kernel_constraint": null, "bias_constraint": null}, "name": "Conv2D_Stage_3_Block_C_a", "inbound_nodes": [[["tf_op_layer_Relu_15", 0, 0, {}]]]}, {"class_name": "Conv1D", "config": {"name": "Conv1D_Stage_3_Block_C_a", "trainable": true, "dtype": "float32", "filters": 64, "kernel_size": [1], "strides": [1], "padding": "valid", "data_format": "channels_last", "dilation_rate": [1], "activation": "linear", "use_bias": true, "kernel_initializer": {"class_name": "GlorotUniform", "config": {"seed": null}}, "bias_initializer": {"class_name": "Zeros", "config": {}}, "kernel_regularizer": null, "bias_regularizer": null, "activity_regularizer": null, "kernel_constraint": null, "bias_constraint": null}, "name": "Conv1D_Stage_3_Block_C_a", "inbound_nodes": [[["tf_op_layer_Relu_55", 0, 0, {}]]]}, {"class_name": "BatchNormalization", "config": {"name": "BN2D_Stage_3_Block_C_a", "trainable": true, "dtype": "float32", "axis": [3], "momentum": 0.99, "epsilon": 0.001, "center": true, "scale": true, "beta_initializer": {"class_name": "Zeros", "config": {}}, "gamma_initializer": {"class_name": "Ones", "config": {}}, "moving_mean_initializer": {"class_name": "Zeros", "config": {}}, "moving_variance_initializer": {"class_name": "Ones", "config": {}}, "beta_regularizer": null, "gamma_regularizer": null, "beta_constraint": null, "gamma_constraint": null}, "name": "BN2D_Stage_3_Block_C_a", "inbound_nodes": [[["Conv2D_Stage_3_Block_C_a", 0, 0, {}]]]}, {"class_name": "BatchNormalization", "config": {"name": "BN1D_Stage_3_Block_C_a", "trainable": true, "dtype": "float32", "axis": [2], "momentum": 0.99, "epsilon": 0.001, "center": true, "scale": true, "beta_initializer": {"class_name": "Zeros", "config": {}}, "gamma_initializer": {"class_name": "Ones", "config": {}}, "moving_mean_initializer": {"class_name": "Zeros", "config": {}}, "moving_variance_initializer": {"class_name": "Ones", "config": {}}, "beta_regularizer": null, "gamma_regularizer": null, "beta_constraint": null, "gamma_constraint": null}, "name": "BN1D_Stage_3_Block_C_a", "inbound_nodes": [[["Conv1D_Stage_3_Block_C_a", 0, 0, {}]]]}, {"class_name": "TensorFlowOpLayer", "config": {"name": "Relu_16", "trainable": true, "dtype": "float32", "node_def": {"name": "Relu_16", "op": "Relu", "input": ["BN2D_Stage_3_Block_C_a/Identity"], "attr": {"T": {"type": "DT_FLOAT"}}}, "constants": {}}, "name": "tf_op_layer_Relu_16", "inbound_nodes": [[["BN2D_Stage_3_Block_C_a", 0, 0, {}]]]}, {"class_name": "TensorFlowOpLayer", "config": {"name": "Relu_56", "trainable": true, "dtype": "float32", "node_def": {"name": "Relu_56", "op": "Relu", "input": ["BN1D_Stage_3_Block_C_a/Identity"], "attr": {"T": {"type": "DT_FLOAT"}}}, "constants": {}}, "name": "tf_op_layer_Relu_56", "inbound_nodes": [[["BN1D_Stage_3_Block_C_a", 0, 0, {}]]]}, {"class_name": "Conv2D", "config": {"name": "Conv2D_Stage_3_Block_C_b", "trainable": true, "dtype": "float32", "filters": 64, "kernel_size": [3, 3], "strides": [1, 1], "padding": "same", "data_format": "channels_last", "dilation_rate": [1, 1], "activation": "linear", "use_bias": true, "kernel_initializer": {"class_name": "GlorotUniform", "config": {"seed": null}}, "bias_initializer": {"class_name": "Zeros", "config": {}}, "kernel_regularizer": null, "bias_regularizer": null, "activity_regularizer": null, "kernel_constraint": null, "bias_constraint": null}, "name": "Conv2D_Stage_3_Block_C_b", "inbound_nodes": [[["tf_op_layer_Relu_16", 0, 0, {}]]]}, {"class_name": "Conv1D", "config": {"name": "Conv1D_Stage_3_Block_C_b", "trainable": true, "dtype": "float32", "filters": 64, "kernel_size": [3], "strides": [1], "padding": "same", "data_format": "channels_last", "dilation_rate": [1], "activation": "linear", "use_bias": true, "kernel_initializer": {"class_name": "GlorotUniform", "config": {"seed": null}}, "bias_initializer": {"class_name": "Zeros", "config": {}}, "kernel_regularizer": null, "bias_regularizer": null, "activity_regularizer": null, "kernel_constraint": null, "bias_constraint": null}, "name": "Conv1D_Stage_3_Block_C_b", "inbound_nodes": [[["tf_op_layer_Relu_56", 0, 0, {}]]]}, {"class_name": "BatchNormalization", "config": {"name": "BN2D_Stage_3_Block_C_b", "trainable": true, "dtype": "float32", "axis": [3], "momentum": 0.99, "epsilon": 0.001, "center": true, "scale": true, "beta_initializer": {"class_name": "Zeros", "config": {}}, "gamma_initializer": {"class_name": "Ones", "config": {}}, "moving_mean_initializer": {"class_name": "Zeros", "config": {}}, "moving_variance_initializer": {"class_name": "Ones", "config": {}}, "beta_regularizer": null, "gamma_regularizer": null, "beta_constraint": null, "gamma_constraint": null}, "name": "BN2D_Stage_3_Block_C_b", "inbound_nodes": [[["Conv2D_Stage_3_Block_C_b", 0, 0, {}]]]}, {"class_name": "BatchNormalization", "config": {"name": "BN1D_Stage_3_Block_C_b", "trainable": true, "dtype": "float32", "axis": [2], "momentum": 0.99, "epsilon": 0.001, "center": true, "scale": true, "beta_initializer": {"class_name": "Zeros", "config": {}}, "gamma_initializer": {"class_name": "Ones", "config": {}}, "moving_mean_initializer": {"class_name": "Zeros", "config": {}}, "moving_variance_initializer": {"class_name": "Ones", "config": {}}, "beta_regularizer": null, "gamma_regularizer": null, "beta_constraint": null, "gamma_constraint": null}, "name": "BN1D_Stage_3_Block_C_b", "inbound_nodes": [[["Conv1D_Stage_3_Block_C_b", 0, 0, {}]]]}, {"class_name": "TensorFlowOpLayer", "config": {"name": "Relu_17", "trainable": true, "dtype": "float32", "node_def": {"name": "Relu_17", "op": "Relu", "input": ["BN2D_Stage_3_Block_C_b/Identity"], "attr": {"T": {"type": "DT_FLOAT"}}}, "constants": {}}, "name": "tf_op_layer_Relu_17", "inbound_nodes": [[["BN2D_Stage_3_Block_C_b", 0, 0, {}]]]}, {"class_name": "TensorFlowOpLayer", "config": {"name": "Relu_57", "trainable": true, "dtype": "float32", "node_def": {"name": "Relu_57", "op": "Relu", "input": ["BN1D_Stage_3_Block_C_b/Identity"], "attr": {"T": {"type": "DT_FLOAT"}}}, "constants": {}}, "name": "tf_op_layer_Relu_57", "inbound_nodes": [[["BN1D_Stage_3_Block_C_b", 0, 0, {}]]]}, {"class_name": "Conv2D", "config": {"name": "Conv2D_Stage_3_Block_C_c", "trainable": true, "dtype": "float32", "filters": 256, "kernel_size": [1, 1], "strides": [1, 1], "padding": "valid", "data_format": "channels_last", "dilation_rate": [1, 1], "activation": "linear", "use_bias": true, "kernel_initializer": {"class_name": "GlorotUniform", "config": {"seed": null}}, "bias_initializer": {"class_name": "Zeros", "config": {}}, "kernel_regularizer": null, "bias_regularizer": null, "activity_regularizer": null, "kernel_constraint": null, "bias_constraint": null}, "name": "Conv2D_Stage_3_Block_C_c", "inbound_nodes": [[["tf_op_layer_Relu_17", 0, 0, {}]]]}, {"class_name": "Conv1D", "config": {"name": "Conv1D_Stage_3_Block_C_c", "trainable": true, "dtype": "float32", "filters": 256, "kernel_size": [1], "strides": [1], "padding": "valid", "data_format": "channels_last", "dilation_rate": [1], "activation": "linear", "use_bias": true, "kernel_initializer": {"class_name": "GlorotUniform", "config": {"seed": null}}, "bias_initializer": {"class_name": "Zeros", "config": {}}, "kernel_regularizer": null, "bias_regularizer": null, "activity_regularizer": null, "kernel_constraint": null, "bias_constraint": null}, "name": "Conv1D_Stage_3_Block_C_c", "inbound_nodes": [[["tf_op_layer_Relu_57", 0, 0, {}]]]}, {"class_name": "BatchNormalization", "config": {"name": "BN2D_Stage_3_Block_C_c", "trainable": true, "dtype": "float32", "axis": [3], "momentum": 0.99, "epsilon": 0.001, "center": true, "scale": true, "beta_initializer": {"class_name": "Zeros", "config": {}}, "gamma_initializer": {"class_name": "Ones", "config": {}}, "moving_mean_initializer": {"class_name": "Zeros", "config": {}}, "moving_variance_initializer": {"class_name": "Ones", "config": {}}, "beta_regularizer": null, "gamma_regularizer": null, "beta_constraint": null, "gamma_constraint": null}, "name": "BN2D_Stage_3_Block_C_c", "inbound_nodes": [[["Conv2D_Stage_3_Block_C_c", 0, 0, {}]]]}, {"class_name": "BatchNormalization", "config": {"name": "BN1D_Stage_3_Block_C_c", "trainable": true, "dtype": "float32", "axis": [2], "momentum": 0.99, "epsilon": 0.001, "center": true, "scale": true, "beta_initializer": {"class_name": "Zeros", "config": {}}, "gamma_initializer": {"class_name": "Ones", "config": {}}, "moving_mean_initializer": {"class_name": "Zeros", "config": {}}, "moving_variance_initializer": {"class_name": "Ones", "config": {}}, "beta_regularizer": null, "gamma_regularizer": null, "beta_constraint": null, "gamma_constraint": null}, "name": "BN1D_Stage_3_Block_C_c", "inbound_nodes": [[["Conv1D_Stage_3_Block_C_c", 0, 0, {}]]]}, {"class_name": "Add", "config": {"name": "add_5", "trainable": true, "dtype": "float32"}, "name": "add_5", "inbound_nodes": [[["BN2D_Stage_3_Block_C_c", 0, 0, {}], ["tf_op_layer_Relu_15", 0, 0, {}]]]}, {"class_name": "Add", "config": {"name": "add_18", "trainable": true, "dtype": "float32"}, "name": "add_18", "inbound_nodes": [[["BN1D_Stage_3_Block_C_c", 0, 0, {}], ["tf_op_layer_Relu_55", 0, 0, {}]]]}, {"class_name": "TensorFlowOpLayer", "config": {"name": "Relu_18", "trainable": true, "dtype": "float32", "node_def": {"name": "Relu_18", "op": "Relu", "input": ["add_5/Identity"], "attr": {"T": {"type": "DT_FLOAT"}}}, "constants": {}}, "name": "tf_op_layer_Relu_18", "inbound_nodes": [[["add_5", 0, 0, {}]]]}, {"class_name": "TensorFlowOpLayer", "config": {"name": "Relu_58", "trainable": true, "dtype": "float32", "node_def": {"name": "Relu_58", "op": "Relu", "input": ["add_18/Identity"], "attr": {"T": {"type": "DT_FLOAT"}}}, "constants": {}}, "name": "tf_op_layer_Relu_58", "inbound_nodes": [[["add_18", 0, 0, {}]]]}, {"class_name": "Conv2D", "config": {"name": "Conv2D_Stage_3_Block_D_a", "trainable": true, "dtype": "float32", "filters": 64, "kernel_size": [1, 1], "strides": [1, 1], "padding": "valid", "data_format": "channels_last", "dilation_rate": [1, 1], "activation": "linear", "use_bias": true, "kernel_initializer": {"class_name": "GlorotUniform", "config": {"seed": null}}, "bias_initializer": {"class_name": "Zeros", "config": {}}, "kernel_regularizer": null, "bias_regularizer": null, "activity_regularizer": null, "kernel_constraint": null, "bias_constraint": null}, "name": "Conv2D_Stage_3_Block_D_a", "inbound_nodes": [[["tf_op_layer_Relu_18", 0, 0, {}]]]}, {"class_name": "Conv1D", "config": {"name": "Conv1D_Stage_3_Block_D_a", "trainable": true, "dtype": "float32", "filters": 64, "kernel_size": [1], "strides": [1], "padding": "valid", "data_format": "channels_last", "dilation_rate": [1], "activation": "linear", "use_bias": true, "kernel_initializer": {"class_name": "GlorotUniform", "config": {"seed": null}}, "bias_initializer": {"class_name": "Zeros", "config": {}}, "kernel_regularizer": null, "bias_regularizer": null, "activity_regularizer": null, "kernel_constraint": null, "bias_constraint": null}, "name": "Conv1D_Stage_3_Block_D_a", "inbound_nodes": [[["tf_op_layer_Relu_58", 0, 0, {}]]]}, {"class_name": "BatchNormalization", "config": {"name": "BN2D_Stage_3_Block_D_a", "trainable": true, "dtype": "float32", "axis": [3], "momentum": 0.99, "epsilon": 0.001, "center": true, "scale": true, "beta_initializer": {"class_name": "Zeros", "config": {}}, "gamma_initializer": {"class_name": "Ones", "config": {}}, "moving_mean_initializer": {"class_name": "Zeros", "config": {}}, "moving_variance_initializer": {"class_name": "Ones", "config": {}}, "beta_regularizer": null, "gamma_regularizer": null, "beta_constraint": null, "gamma_constraint": null}, "name": "BN2D_Stage_3_Block_D_a", "inbound_nodes": [[["Conv2D_Stage_3_Block_D_a", 0, 0, {}]]]}, {"class_name": "BatchNormalization", "config": {"name": "BN1D_Stage_3_Block_D_a", "trainable": true, "dtype": "float32", "axis": [2], "momentum": 0.99, "epsilon": 0.001, "center": true, "scale": true, "beta_initializer": {"class_name": "Zeros", "config": {}}, "gamma_initializer": {"class_name": "Ones", "config": {}}, "moving_mean_initializer": {"class_name": "Zeros", "config": {}}, "moving_variance_initializer": {"class_name": "Ones", "config": {}}, "beta_regularizer": null, "gamma_regularizer": null, "beta_constraint": null, "gamma_constraint": null}, "name": "BN1D_Stage_3_Block_D_a", "inbound_nodes": [[["Conv1D_Stage_3_Block_D_a", 0, 0, {}]]]}, {"class_name": "TensorFlowOpLayer", "config": {"name": "Relu_19", "trainable": true, "dtype": "float32", "node_def": {"name": "Relu_19", "op": "Relu", "input": ["BN2D_Stage_3_Block_D_a/Identity"], "attr": {"T": {"type": "DT_FLOAT"}}}, "constants": {}}, "name": "tf_op_layer_Relu_19", "inbound_nodes": [[["BN2D_Stage_3_Block_D_a", 0, 0, {}]]]}, {"class_name": "TensorFlowOpLayer", "config": {"name": "Relu_59", "trainable": true, "dtype": "float32", "node_def": {"name": "Relu_59", "op": "Relu", "input": ["BN1D_Stage_3_Block_D_a/Identity"], "attr": {"T": {"type": "DT_FLOAT"}}}, "constants": {}}, "name": "tf_op_layer_Relu_59", "inbound_nodes": [[["BN1D_Stage_3_Block_D_a", 0, 0, {}]]]}, {"class_name": "Conv2D", "config": {"name": "Conv2D_Stage_3_Block_D_b", "trainable": true, "dtype": "float32", "filters": 64, "kernel_size": [3, 3], "strides": [1, 1], "padding": "same", "data_format": "channels_last", "dilation_rate": [1, 1], "activation": "linear", "use_bias": true, "kernel_initializer": {"class_name": "GlorotUniform", "config": {"seed": null}}, "bias_initializer": {"class_name": "Zeros", "config": {}}, "kernel_regularizer": null, "bias_regularizer": null, "activity_regularizer": null, "kernel_constraint": null, "bias_constraint": null}, "name": "Conv2D_Stage_3_Block_D_b", "inbound_nodes": [[["tf_op_layer_Relu_19", 0, 0, {}]]]}, {"class_name": "Conv1D", "config": {"name": "Conv1D_Stage_3_Block_D_b", "trainable": true, "dtype": "float32", "filters": 64, "kernel_size": [3], "strides": [1], "padding": "same", "data_format": "channels_last", "dilation_rate": [1], "activation": "linear", "use_bias": true, "kernel_initializer": {"class_name": "GlorotUniform", "config": {"seed": null}}, "bias_initializer": {"class_name": "Zeros", "config": {}}, "kernel_regularizer": null, "bias_regularizer": null, "activity_regularizer": null, "kernel_constraint": null, "bias_constraint": null}, "name": "Conv1D_Stage_3_Block_D_b", "inbound_nodes": [[["tf_op_layer_Relu_59", 0, 0, {}]]]}, {"class_name": "BatchNormalization", "config": {"name": "BN2D_Stage_3_Block_D_b", "trainable": true, "dtype": "float32", "axis": [3], "momentum": 0.99, "epsilon": 0.001, "center": true, "scale": true, "beta_initializer": {"class_name": "Zeros", "config": {}}, "gamma_initializer": {"class_name": "Ones", "config": {}}, "moving_mean_initializer": {"class_name": "Zeros", "config": {}}, "moving_variance_initializer": {"class_name": "Ones", "config": {}}, "beta_regularizer": null, "gamma_regularizer": null, "beta_constraint": null, "gamma_constraint": null}, "name": "BN2D_Stage_3_Block_D_b", "inbound_nodes": [[["Conv2D_Stage_3_Block_D_b", 0, 0, {}]]]}, {"class_name": "BatchNormalization", "config": {"name": "BN1D_Stage_3_Block_D_b", "trainable": true, "dtype": "float32", "axis": [2], "momentum": 0.99, "epsilon": 0.001, "center": true, "scale": true, "beta_initializer": {"class_name": "Zeros", "config": {}}, "gamma_initializer": {"class_name": "Ones", "config": {}}, "moving_mean_initializer": {"class_name": "Zeros", "config": {}}, "moving_variance_initializer": {"class_name": "Ones", "config": {}}, "beta_regularizer": null, "gamma_regularizer": null, "beta_constraint": null, "gamma_constraint": null}, "name": "BN1D_Stage_3_Block_D_b", "inbound_nodes": [[["Conv1D_Stage_3_Block_D_b", 0, 0, {}]]]}, {"class_name": "TensorFlowOpLayer", "config": {"name": "Relu_20", "trainable": true, "dtype": "float32", "node_def": {"name": "Relu_20", "op": "Relu", "input": ["BN2D_Stage_3_Block_D_b/Identity"], "attr": {"T": {"type": "DT_FLOAT"}}}, "constants": {}}, "name": "tf_op_layer_Relu_20", "inbound_nodes": [[["BN2D_Stage_3_Block_D_b", 0, 0, {}]]]}, {"class_name": "TensorFlowOpLayer", "config": {"name": "Relu_60", "trainable": true, "dtype": "float32", "node_def": {"name": "Relu_60", "op": "Relu", "input": ["BN1D_Stage_3_Block_D_b/Identity"], "attr": {"T": {"type": "DT_FLOAT"}}}, "constants": {}}, "name": "tf_op_layer_Relu_60", "inbound_nodes": [[["BN1D_Stage_3_Block_D_b", 0, 0, {}]]]}, {"class_name": "Conv2D", "config": {"name": "Conv2D_Stage_3_Block_D_c", "trainable": true, "dtype": "float32", "filters": 256, "kernel_size": [1, 1], "strides": [1, 1], "padding": "valid", "data_format": "channels_last", "dilation_rate": [1, 1], "activation": "linear", "use_bias": true, "kernel_initializer": {"class_name": "GlorotUniform", "config": {"seed": null}}, "bias_initializer": {"class_name": "Zeros", "config": {}}, "kernel_regularizer": null, "bias_regularizer": null, "activity_regularizer": null, "kernel_constraint": null, "bias_constraint": null}, "name": "Conv2D_Stage_3_Block_D_c", "inbound_nodes": [[["tf_op_layer_Relu_20", 0, 0, {}]]]}, {"class_name": "Conv1D", "config": {"name": "Conv1D_Stage_3_Block_D_c", "trainable": true, "dtype": "float32", "filters": 256, "kernel_size": [1], "strides": [1], "padding": "valid", "data_format": "channels_last", "dilation_rate": [1], "activation": "linear", "use_bias": true, "kernel_initializer": {"class_name": "GlorotUniform", "config": {"seed": null}}, "bias_initializer": {"class_name": "Zeros", "config": {}}, "kernel_regularizer": null, "bias_regularizer": null, "activity_regularizer": null, "kernel_constraint": null, "bias_constraint": null}, "name": "Conv1D_Stage_3_Block_D_c", "inbound_nodes": [[["tf_op_layer_Relu_60", 0, 0, {}]]]}, {"class_name": "BatchNormalization", "config": {"name": "BN2D_Stage_3_Block_D_c", "trainable": true, "dtype": "float32", "axis": [3], "momentum": 0.99, "epsilon": 0.001, "center": true, "scale": true, "beta_initializer": {"class_name": "Zeros", "config": {}}, "gamma_initializer": {"class_name": "Ones", "config": {}}, "moving_mean_initializer": {"class_name": "Zeros", "config": {}}, "moving_variance_initializer": {"class_name": "Ones", "config": {}}, "beta_regularizer": null, "gamma_regularizer": null, "beta_constraint": null, "gamma_constraint": null}, "name": "BN2D_Stage_3_Block_D_c", "inbound_nodes": [[["Conv2D_Stage_3_Block_D_c", 0, 0, {}]]]}, {"class_name": "BatchNormalization", "config": {"name": "BN1D_Stage_3_Block_D_c", "trainable": true, "dtype": "float32", "axis": [2], "momentum": 0.99, "epsilon": 0.001, "center": true, "scale": true, "beta_initializer": {"class_name": "Zeros", "config": {}}, "gamma_initializer": {"class_name": "Ones", "config": {}}, "moving_mean_initializer": {"class_name": "Zeros", "config": {}}, "moving_variance_initializer": {"class_name": "Ones", "config": {}}, "beta_regularizer": null, "gamma_regularizer": null, "beta_constraint": null, "gamma_constraint": null}, "name": "BN1D_Stage_3_Block_D_c", "inbound_nodes": [[["Conv1D_Stage_3_Block_D_c", 0, 0, {}]]]}, {"class_name": "Add", "config": {"name": "add_6", "trainable": true, "dtype": "float32"}, "name": "add_6", "inbound_nodes": [[["BN2D_Stage_3_Block_D_c", 0, 0, {}], ["tf_op_layer_Relu_18", 0, 0, {}]]]}, {"class_name": "Add", "config": {"name": "add_19", "trainable": true, "dtype": "float32"}, "name": "add_19", "inbound_nodes": [[["BN1D_Stage_3_Block_D_c", 0, 0, {}], ["tf_op_layer_Relu_58", 0, 0, {}]]]}, {"class_name": "TensorFlowOpLayer", "config": {"name": "Relu_21", "trainable": true, "dtype": "float32", "node_def": {"name": "Relu_21", "op": "Relu", "input": ["add_6/Identity"], "attr": {"T": {"type": "DT_FLOAT"}}}, "constants": {}}, "name": "tf_op_layer_Relu_21", "inbound_nodes": [[["add_6", 0, 0, {}]]]}, {"class_name": "TensorFlowOpLayer", "config": {"name": "Relu_61", "trainable": true, "dtype": "float32", "node_def": {"name": "Relu_61", "op": "Relu", "input": ["add_19/Identity"], "attr": {"T": {"type": "DT_FLOAT"}}}, "constants": {}}, "name": "tf_op_layer_Relu_61", "inbound_nodes": [[["add_19", 0, 0, {}]]]}, {"class_name": "Conv2D", "config": {"name": "Conv2D_Stage_4_Block_A_a", "trainable": true, "dtype": "float32", "filters": 128, "kernel_size": [1, 1], "strides": [2, 2], "padding": "valid", "data_format": "channels_last", "dilation_rate": [1, 1], "activation": "linear", "use_bias": true, "kernel_initializer": {"class_name": "GlorotUniform", "config": {"seed": null}}, "bias_initializer": {"class_name": "Zeros", "config": {}}, "kernel_regularizer": null, "bias_regularizer": null, "activity_regularizer": null, "kernel_constraint": null, "bias_constraint": null}, "name": "Conv2D_Stage_4_Block_A_a", "inbound_nodes": [[["tf_op_layer_Relu_21", 0, 0, {}]]]}, {"class_name": "Conv1D", "config": {"name": "Conv1D_Stage_4_Block_A_a", "trainable": true, "dtype": "float32", "filters": 128, "kernel_size": [1], "strides": [2], "padding": "valid", "data_format": "channels_last", "dilation_rate": [1], "activation": "linear", "use_bias": true, "kernel_initializer": {"class_name": "GlorotUniform", "config": {"seed": null}}, "bias_initializer": {"class_name": "Zeros", "config": {}}, "kernel_regularizer": null, "bias_regularizer": null, "activity_regularizer": null, "kernel_constraint": null, "bias_constraint": null}, "name": "Conv1D_Stage_4_Block_A_a", "inbound_nodes": [[["tf_op_layer_Relu_61", 0, 0, {}]]]}, {"class_name": "BatchNormalization", "config": {"name": "BN2D_Stage_4_Block_A_a", "trainable": true, "dtype": "float32", "axis": [3], "momentum": 0.99, "epsilon": 0.001, "center": true, "scale": true, "beta_initializer": {"class_name": "Zeros", "config": {}}, "gamma_initializer": {"class_name": "Ones", "config": {}}, "moving_mean_initializer": {"class_name": "Zeros", "config": {}}, "moving_variance_initializer": {"class_name": "Ones", "config": {}}, "beta_regularizer": null, "gamma_regularizer": null, "beta_constraint": null, "gamma_constraint": null}, "name": "BN2D_Stage_4_Block_A_a", "inbound_nodes": [[["Conv2D_Stage_4_Block_A_a", 0, 0, {}]]]}, {"class_name": "BatchNormalization", "config": {"name": "BN1D_Stage_4_Block_A_a", "trainable": true, "dtype": "float32", "axis": [2], "momentum": 0.99, "epsilon": 0.001, "center": true, "scale": true, "beta_initializer": {"class_name": "Zeros", "config": {}}, "gamma_initializer": {"class_name": "Ones", "config": {}}, "moving_mean_initializer": {"class_name": "Zeros", "config": {}}, "moving_variance_initializer": {"class_name": "Ones", "config": {}}, "beta_regularizer": null, "gamma_regularizer": null, "beta_constraint": null, "gamma_constraint": null}, "name": "BN1D_Stage_4_Block_A_a", "inbound_nodes": [[["Conv1D_Stage_4_Block_A_a", 0, 0, {}]]]}, {"class_name": "TensorFlowOpLayer", "config": {"name": "Relu_22", "trainable": true, "dtype": "float32", "node_def": {"name": "Relu_22", "op": "Relu", "input": ["BN2D_Stage_4_Block_A_a/Identity"], "attr": {"T": {"type": "DT_FLOAT"}}}, "constants": {}}, "name": "tf_op_layer_Relu_22", "inbound_nodes": [[["BN2D_Stage_4_Block_A_a", 0, 0, {}]]]}, {"class_name": "TensorFlowOpLayer", "config": {"name": "Relu_62", "trainable": true, "dtype": "float32", "node_def": {"name": "Relu_62", "op": "Relu", "input": ["BN1D_Stage_4_Block_A_a/Identity"], "attr": {"T": {"type": "DT_FLOAT"}}}, "constants": {}}, "name": "tf_op_layer_Relu_62", "inbound_nodes": [[["BN1D_Stage_4_Block_A_a", 0, 0, {}]]]}, {"class_name": "Conv2D", "config": {"name": "Conv2D_Stage_4_Block_A_b", "trainable": true, "dtype": "float32", "filters": 128, "kernel_size": [3, 3], "strides": [1, 1], "padding": "same", "data_format": "channels_last", "dilation_rate": [1, 1], "activation": "linear", "use_bias": true, "kernel_initializer": {"class_name": "GlorotUniform", "config": {"seed": null}}, "bias_initializer": {"class_name": "Zeros", "config": {}}, "kernel_regularizer": null, "bias_regularizer": null, "activity_regularizer": null, "kernel_constraint": null, "bias_constraint": null}, "name": "Conv2D_Stage_4_Block_A_b", "inbound_nodes": [[["tf_op_layer_Relu_22", 0, 0, {}]]]}, {"class_name": "Conv1D", "config": {"name": "Conv1D_Stage_4_Block_A_b", "trainable": true, "dtype": "float32", "filters": 128, "kernel_size": [3], "strides": [1], "padding": "same", "data_format": "channels_last", "dilation_rate": [1], "activation": "linear", "use_bias": true, "kernel_initializer": {"class_name": "GlorotUniform", "config": {"seed": null}}, "bias_initializer": {"class_name": "Zeros", "config": {}}, "kernel_regularizer": null, "bias_regularizer": null, "activity_regularizer": null, "kernel_constraint": null, "bias_constraint": null}, "name": "Conv1D_Stage_4_Block_A_b", "inbound_nodes": [[["tf_op_layer_Relu_62", 0, 0, {}]]]}, {"class_name": "BatchNormalization", "config": {"name": "BN2D_Stage_4_Block_A_b", "trainable": true, "dtype": "float32", "axis": [3], "momentum": 0.99, "epsilon": 0.001, "center": true, "scale": true, "beta_initializer": {"class_name": "Zeros", "config": {}}, "gamma_initializer": {"class_name": "Ones", "config": {}}, "moving_mean_initializer": {"class_name": "Zeros", "config": {}}, "moving_variance_initializer": {"class_name": "Ones", "config": {}}, "beta_regularizer": null, "gamma_regularizer": null, "beta_constraint": null, "gamma_constraint": null}, "name": "BN2D_Stage_4_Block_A_b", "inbound_nodes": [[["Conv2D_Stage_4_Block_A_b", 0, 0, {}]]]}, {"class_name": "BatchNormalization", "config": {"name": "BN1D_Stage_4_Block_A_b", "trainable": true, "dtype": "float32", "axis": [2], "momentum": 0.99, "epsilon": 0.001, "center": true, "scale": true, "beta_initializer": {"class_name": "Zeros", "config": {}}, "gamma_initializer": {"class_name": "Ones", "config": {}}, "moving_mean_initializer": {"class_name": "Zeros", "config": {}}, "moving_variance_initializer": {"class_name": "Ones", "config": {}}, "beta_regularizer": null, "gamma_regularizer": null, "beta_constraint": null, "gamma_constraint": null}, "name": "BN1D_Stage_4_Block_A_b", "inbound_nodes": [[["Conv1D_Stage_4_Block_A_b", 0, 0, {}]]]}, {"class_name": "TensorFlowOpLayer", "config": {"name": "Relu_23", "trainable": true, "dtype": "float32", "node_def": {"name": "Relu_23", "op": "Relu", "input": ["BN2D_Stage_4_Block_A_b/Identity"], "attr": {"T": {"type": "DT_FLOAT"}}}, "constants": {}}, "name": "tf_op_layer_Relu_23", "inbound_nodes": [[["BN2D_Stage_4_Block_A_b", 0, 0, {}]]]}, {"class_name": "TensorFlowOpLayer", "config": {"name": "Relu_63", "trainable": true, "dtype": "float32", "node_def": {"name": "Relu_63", "op": "Relu", "input": ["BN1D_Stage_4_Block_A_b/Identity"], "attr": {"T": {"type": "DT_FLOAT"}}}, "constants": {}}, "name": "tf_op_layer_Relu_63", "inbound_nodes": [[["BN1D_Stage_4_Block_A_b", 0, 0, {}]]]}, {"class_name": "Conv2D", "config": {"name": "Conv2D_Stage_4_Block_A_c", "trainable": true, "dtype": "float32", "filters": 512, "kernel_size": [1, 1], "strides": [1, 1], "padding": "valid", "data_format": "channels_last", "dilation_rate": [1, 1], "activation": "linear", "use_bias": true, "kernel_initializer": {"class_name": "GlorotUniform", "config": {"seed": null}}, "bias_initializer": {"class_name": "Zeros", "config": {}}, "kernel_regularizer": null, "bias_regularizer": null, "activity_regularizer": null, "kernel_constraint": null, "bias_constraint": null}, "name": "Conv2D_Stage_4_Block_A_c", "inbound_nodes": [[["tf_op_layer_Relu_23", 0, 0, {}]]]}, {"class_name": "Conv2D", "config": {"name": "Conv2D_Stage_4_Block_A_shortcut", "trainable": true, "dtype": "float32", "filters": 512, "kernel_size": [1, 1], "strides": [2, 2], "padding": "valid", "data_format": "channels_last", "dilation_rate": [1, 1], "activation": "linear", "use_bias": true, "kernel_initializer": {"class_name": "GlorotUniform", "config": {"seed": null}}, "bias_initializer": {"class_name": "Zeros", "config": {}}, "kernel_regularizer": null, "bias_regularizer": null, "activity_regularizer": null, "kernel_constraint": null, "bias_constraint": null}, "name": "Conv2D_Stage_4_Block_A_shortcut", "inbound_nodes": [[["tf_op_layer_Relu_21", 0, 0, {}]]]}, {"class_name": "Conv1D", "config": {"name": "Conv1D_Stage_4_Block_A_c", "trainable": true, "dtype": "float32", "filters": 512, "kernel_size": [1], "strides": [1], "padding": "valid", "data_format": "channels_last", "dilation_rate": [1], "activation": "linear", "use_bias": true, "kernel_initializer": {"class_name": "GlorotUniform", "config": {"seed": null}}, "bias_initializer": {"class_name": "Zeros", "config": {}}, "kernel_regularizer": null, "bias_regularizer": null, "activity_regularizer": null, "kernel_constraint": null, "bias_constraint": null}, "name": "Conv1D_Stage_4_Block_A_c", "inbound_nodes": [[["tf_op_layer_Relu_63", 0, 0, {}]]]}, {"class_name": "Conv1D", "config": {"name": "Conv1D_Stage_4_Block_A_shortcut", "trainable": true, "dtype": "float32", "filters": 512, "kernel_size": [1], "strides": [2], "padding": "valid", "data_format": "channels_last", "dilation_rate": [1], "activation": "linear", "use_bias": true, "kernel_initializer": {"class_name": "GlorotUniform", "config": {"seed": null}}, "bias_initializer": {"class_name": "Zeros", "config": {}}, "kernel_regularizer": null, "bias_regularizer": null, "activity_regularizer": null, "kernel_constraint": null, "bias_constraint": null}, "name": "Conv1D_Stage_4_Block_A_shortcut", "inbound_nodes": [[["tf_op_layer_Relu_61", 0, 0, {}]]]}, {"class_name": "BatchNormalization", "config": {"name": "BN2D_Stage_4_Block_A_c", "trainable": true, "dtype": "float32", "axis": [3], "momentum": 0.99, "epsilon": 0.001, "center": true, "scale": true, "beta_initializer": {"class_name": "Zeros", "config": {}}, "gamma_initializer": {"class_name": "Ones", "config": {}}, "moving_mean_initializer": {"class_name": "Zeros", "config": {}}, "moving_variance_initializer": {"class_name": "Ones", "config": {}}, "beta_regularizer": null, "gamma_regularizer": null, "beta_constraint": null, "gamma_constraint": null}, "name": "BN2D_Stage_4_Block_A_c", "inbound_nodes": [[["Conv2D_Stage_4_Block_A_c", 0, 0, {}]]]}, {"class_name": "BatchNormalization", "config": {"name": "BN2D_Stage_4_Block_A_shortcut", "trainable": true, "dtype": "float32", "axis": [3], "momentum": 0.99, "epsilon": 0.001, "center": true, "scale": true, "beta_initializer": {"class_name": "Zeros", "config": {}}, "gamma_initializer": {"class_name": "Ones", "config": {}}, "moving_mean_initializer": {"class_name": "Zeros", "config": {}}, "moving_variance_initializer": {"class_name": "Ones", "config": {}}, "beta_regularizer": null, "gamma_regularizer": null, "beta_constraint": null, "gamma_constraint": null}, "name": "BN2D_Stage_4_Block_A_shortcut", "inbound_nodes": [[["Conv2D_Stage_4_Block_A_shortcut", 0, 0, {}]]]}, {"class_name": "BatchNormalization", "config": {"name": "BN1D_Stage_4_Block_A_c", "trainable": true, "dtype": "float32", "axis": [2], "momentum": 0.99, "epsilon": 0.001, "center": true, "scale": true, "beta_initializer": {"class_name": "Zeros", "config": {}}, "gamma_initializer": {"class_name": "Ones", "config": {}}, "moving_mean_initializer": {"class_name": "Zeros", "config": {}}, "moving_variance_initializer": {"class_name": "Ones", "config": {}}, "beta_regularizer": null, "gamma_regularizer": null, "beta_constraint": null, "gamma_constraint": null}, "name": "BN1D_Stage_4_Block_A_c", "inbound_nodes": [[["Conv1D_Stage_4_Block_A_c", 0, 0, {}]]]}, {"class_name": "BatchNormalization", "config": {"name": "BN1D_Stage_4_Block_A_shortcut", "trainable": true, "dtype": "float32", "axis": [2], "momentum": 0.99, "epsilon": 0.001, "center": true, "scale": true, "beta_initializer": {"class_name": "Zeros", "config": {}}, "gamma_initializer": {"class_name": "Ones", "config": {}}, "moving_mean_initializer": {"class_name": "Zeros", "config": {}}, "moving_variance_initializer": {"class_name": "Ones", "config": {}}, "beta_regularizer": null, "gamma_regularizer": null, "beta_constraint": null, "gamma_constraint": null}, "name": "BN1D_Stage_4_Block_A_shortcut", "inbound_nodes": [[["Conv1D_Stage_4_Block_A_shortcut", 0, 0, {}]]]}, {"class_name": "Add", "config": {"name": "add_7", "trainable": true, "dtype": "float32"}, "name": "add_7", "inbound_nodes": [[["BN2D_Stage_4_Block_A_c", 0, 0, {}], ["BN2D_Stage_4_Block_A_shortcut", 0, 0, {}]]]}, {"class_name": "Add", "config": {"name": "add_20", "trainable": true, "dtype": "float32"}, "name": "add_20", "inbound_nodes": [[["BN1D_Stage_4_Block_A_c", 0, 0, {}], ["BN1D_Stage_4_Block_A_shortcut", 0, 0, {}]]]}, {"class_name": "TensorFlowOpLayer", "config": {"name": "Relu_24", "trainable": true, "dtype": "float32", "node_def": {"name": "Relu_24", "op": "Relu", "input": ["add_7/Identity"], "attr": {"T": {"type": "DT_FLOAT"}}}, "constants": {}}, "name": "tf_op_layer_Relu_24", "inbound_nodes": [[["add_7", 0, 0, {}]]]}, {"class_name": "TensorFlowOpLayer", "config": {"name": "Relu_64", "trainable": true, "dtype": "float32", "node_def": {"name": "Relu_64", "op": "Relu", "input": ["add_20/Identity"], "attr": {"T": {"type": "DT_FLOAT"}}}, "constants": {}}, "name": "tf_op_layer_Relu_64", "inbound_nodes": [[["add_20", 0, 0, {}]]]}, {"class_name": "Conv2D", "config": {"name": "Conv2D_Stage_4_Block_B_a", "trainable": true, "dtype": "float32", "filters": 128, "kernel_size": [1, 1], "strides": [1, 1], "padding": "valid", "data_format": "channels_last", "dilation_rate": [1, 1], "activation": "linear", "use_bias": true, "kernel_initializer": {"class_name": "GlorotUniform", "config": {"seed": null}}, "bias_initializer": {"class_name": "Zeros", "config": {}}, "kernel_regularizer": null, "bias_regularizer": null, "activity_regularizer": null, "kernel_constraint": null, "bias_constraint": null}, "name": "Conv2D_Stage_4_Block_B_a", "inbound_nodes": [[["tf_op_layer_Relu_24", 0, 0, {}]]]}, {"class_name": "Conv1D", "config": {"name": "Conv1D_Stage_4_Block_B_a", "trainable": true, "dtype": "float32", "filters": 128, "kernel_size": [1], "strides": [1], "padding": "valid", "data_format": "channels_last", "dilation_rate": [1], "activation": "linear", "use_bias": true, "kernel_initializer": {"class_name": "GlorotUniform", "config": {"seed": null}}, "bias_initializer": {"class_name": "Zeros", "config": {}}, "kernel_regularizer": null, "bias_regularizer": null, "activity_regularizer": null, "kernel_constraint": null, "bias_constraint": null}, "name": "Conv1D_Stage_4_Block_B_a", "inbound_nodes": [[["tf_op_layer_Relu_64", 0, 0, {}]]]}, {"class_name": "BatchNormalization", "config": {"name": "BN2D_Stage_4_Block_B_a", "trainable": true, "dtype": "float32", "axis": [3], "momentum": 0.99, "epsilon": 0.001, "center": true, "scale": true, "beta_initializer": {"class_name": "Zeros", "config": {}}, "gamma_initializer": {"class_name": "Ones", "config": {}}, "moving_mean_initializer": {"class_name": "Zeros", "config": {}}, "moving_variance_initializer": {"class_name": "Ones", "config": {}}, "beta_regularizer": null, "gamma_regularizer": null, "beta_constraint": null, "gamma_constraint": null}, "name": "BN2D_Stage_4_Block_B_a", "inbound_nodes": [[["Conv2D_Stage_4_Block_B_a", 0, 0, {}]]]}, {"class_name": "BatchNormalization", "config": {"name": "BN1D_Stage_4_Block_B_a", "trainable": true, "dtype": "float32", "axis": [2], "momentum": 0.99, "epsilon": 0.001, "center": true, "scale": true, "beta_initializer": {"class_name": "Zeros", "config": {}}, "gamma_initializer": {"class_name": "Ones", "config": {}}, "moving_mean_initializer": {"class_name": "Zeros", "config": {}}, "moving_variance_initializer": {"class_name": "Ones", "config": {}}, "beta_regularizer": null, "gamma_regularizer": null, "beta_constraint": null, "gamma_constraint": null}, "name": "BN1D_Stage_4_Block_B_a", "inbound_nodes": [[["Conv1D_Stage_4_Block_B_a", 0, 0, {}]]]}, {"class_name": "TensorFlowOpLayer", "config": {"name": "Relu_25", "trainable": true, "dtype": "float32", "node_def": {"name": "Relu_25", "op": "Relu", "input": ["BN2D_Stage_4_Block_B_a/Identity"], "attr": {"T": {"type": "DT_FLOAT"}}}, "constants": {}}, "name": "tf_op_layer_Relu_25", "inbound_nodes": [[["BN2D_Stage_4_Block_B_a", 0, 0, {}]]]}, {"class_name": "TensorFlowOpLayer", "config": {"name": "Relu_65", "trainable": true, "dtype": "float32", "node_def": {"name": "Relu_65", "op": "Relu", "input": ["BN1D_Stage_4_Block_B_a/Identity"], "attr": {"T": {"type": "DT_FLOAT"}}}, "constants": {}}, "name": "tf_op_layer_Relu_65", "inbound_nodes": [[["BN1D_Stage_4_Block_B_a", 0, 0, {}]]]}, {"class_name": "Conv2D", "config": {"name": "Conv2D_Stage_4_Block_B_b", "trainable": true, "dtype": "float32", "filters": 128, "kernel_size": [3, 3], "strides": [1, 1], "padding": "same", "data_format": "channels_last", "dilation_rate": [1, 1], "activation": "linear", "use_bias": true, "kernel_initializer": {"class_name": "GlorotUniform", "config": {"seed": null}}, "bias_initializer": {"class_name": "Zeros", "config": {}}, "kernel_regularizer": null, "bias_regularizer": null, "activity_regularizer": null, "kernel_constraint": null, "bias_constraint": null}, "name": "Conv2D_Stage_4_Block_B_b", "inbound_nodes": [[["tf_op_layer_Relu_25", 0, 0, {}]]]}, {"class_name": "Conv1D", "config": {"name": "Conv1D_Stage_4_Block_B_b", "trainable": true, "dtype": "float32", "filters": 128, "kernel_size": [3], "strides": [1], "padding": "same", "data_format": "channels_last", "dilation_rate": [1], "activation": "linear", "use_bias": true, "kernel_initializer": {"class_name": "GlorotUniform", "config": {"seed": null}}, "bias_initializer": {"class_name": "Zeros", "config": {}}, "kernel_regularizer": null, "bias_regularizer": null, "activity_regularizer": null, "kernel_constraint": null, "bias_constraint": null}, "name": "Conv1D_Stage_4_Block_B_b", "inbound_nodes": [[["tf_op_layer_Relu_65", 0, 0, {}]]]}, {"class_name": "BatchNormalization", "config": {"name": "BN2D_Stage_4_Block_B_b", "trainable": true, "dtype": "float32", "axis": [3], "momentum": 0.99, "epsilon": 0.001, "center": true, "scale": true, "beta_initializer": {"class_name": "Zeros", "config": {}}, "gamma_initializer": {"class_name": "Ones", "config": {}}, "moving_mean_initializer": {"class_name": "Zeros", "config": {}}, "moving_variance_initializer": {"class_name": "Ones", "config": {}}, "beta_regularizer": null, "gamma_regularizer": null, "beta_constraint": null, "gamma_constraint": null}, "name": "BN2D_Stage_4_Block_B_b", "inbound_nodes": [[["Conv2D_Stage_4_Block_B_b", 0, 0, {}]]]}, {"class_name": "BatchNormalization", "config": {"name": "BN1D_Stage_4_Block_B_b", "trainable": true, "dtype": "float32", "axis": [2], "momentum": 0.99, "epsilon": 0.001, "center": true, "scale": true, "beta_initializer": {"class_name": "Zeros", "config": {}}, "gamma_initializer": {"class_name": "Ones", "config": {}}, "moving_mean_initializer": {"class_name": "Zeros", "config": {}}, "moving_variance_initializer": {"class_name": "Ones", "config": {}}, "beta_regularizer": null, "gamma_regularizer": null, "beta_constraint": null, "gamma_constraint": null}, "name": "BN1D_Stage_4_Block_B_b", "inbound_nodes": [[["Conv1D_Stage_4_Block_B_b", 0, 0, {}]]]}, {"class_name": "TensorFlowOpLayer", "config": {"name": "Relu_26", "trainable": true, "dtype": "float32", "node_def": {"name": "Relu_26", "op": "Relu", "input": ["BN2D_Stage_4_Block_B_b/Identity"], "attr": {"T": {"type": "DT_FLOAT"}}}, "constants": {}}, "name": "tf_op_layer_Relu_26", "inbound_nodes": [[["BN2D_Stage_4_Block_B_b", 0, 0, {}]]]}, {"class_name": "TensorFlowOpLayer", "config": {"name": "Relu_66", "trainable": true, "dtype": "float32", "node_def": {"name": "Relu_66", "op": "Relu", "input": ["BN1D_Stage_4_Block_B_b/Identity"], "attr": {"T": {"type": "DT_FLOAT"}}}, "constants": {}}, "name": "tf_op_layer_Relu_66", "inbound_nodes": [[["BN1D_Stage_4_Block_B_b", 0, 0, {}]]]}, {"class_name": "Conv2D", "config": {"name": "Conv2D_Stage_4_Block_B_c", "trainable": true, "dtype": "float32", "filters": 512, "kernel_size": [1, 1], "strides": [1, 1], "padding": "valid", "data_format": "channels_last", "dilation_rate": [1, 1], "activation": "linear", "use_bias": true, "kernel_initializer": {"class_name": "GlorotUniform", "config": {"seed": null}}, "bias_initializer": {"class_name": "Zeros", "config": {}}, "kernel_regularizer": null, "bias_regularizer": null, "activity_regularizer": null, "kernel_constraint": null, "bias_constraint": null}, "name": "Conv2D_Stage_4_Block_B_c", "inbound_nodes": [[["tf_op_layer_Relu_26", 0, 0, {}]]]}, {"class_name": "Conv1D", "config": {"name": "Conv1D_Stage_4_Block_B_c", "trainable": true, "dtype": "float32", "filters": 512, "kernel_size": [1], "strides": [1], "padding": "valid", "data_format": "channels_last", "dilation_rate": [1], "activation": "linear", "use_bias": true, "kernel_initializer": {"class_name": "GlorotUniform", "config": {"seed": null}}, "bias_initializer": {"class_name": "Zeros", "config": {}}, "kernel_regularizer": null, "bias_regularizer": null, "activity_regularizer": null, "kernel_constraint": null, "bias_constraint": null}, "name": "Conv1D_Stage_4_Block_B_c", "inbound_nodes": [[["tf_op_layer_Relu_66", 0, 0, {}]]]}, {"class_name": "BatchNormalization", "config": {"name": "BN2D_Stage_4_Block_B_c", "trainable": true, "dtype": "float32", "axis": [3], "momentum": 0.99, "epsilon": 0.001, "center": true, "scale": true, "beta_initializer": {"class_name": "Zeros", "config": {}}, "gamma_initializer": {"class_name": "Ones", "config": {}}, "moving_mean_initializer": {"class_name": "Zeros", "config": {}}, "moving_variance_initializer": {"class_name": "Ones", "config": {}}, "beta_regularizer": null, "gamma_regularizer": null, "beta_constraint": null, "gamma_constraint": null}, "name": "BN2D_Stage_4_Block_B_c", "inbound_nodes": [[["Conv2D_Stage_4_Block_B_c", 0, 0, {}]]]}, {"class_name": "BatchNormalization", "config": {"name": "BN1D_Stage_4_Block_B_c", "trainable": true, "dtype": "float32", "axis": [2], "momentum": 0.99, "epsilon": 0.001, "center": true, "scale": true, "beta_initializer": {"class_name": "Zeros", "config": {}}, "gamma_initializer": {"class_name": "Ones", "config": {}}, "moving_mean_initializer": {"class_name": "Zeros", "config": {}}, "moving_variance_initializer": {"class_name": "Ones", "config": {}}, "beta_regularizer": null, "gamma_regularizer": null, "beta_constraint": null, "gamma_constraint": null}, "name": "BN1D_Stage_4_Block_B_c", "inbound_nodes": [[["Conv1D_Stage_4_Block_B_c", 0, 0, {}]]]}, {"class_name": "Add", "config": {"name": "add_8", "trainable": true, "dtype": "float32"}, "name": "add_8", "inbound_nodes": [[["BN2D_Stage_4_Block_B_c", 0, 0, {}], ["tf_op_layer_Relu_24", 0, 0, {}]]]}, {"class_name": "Add", "config": {"name": "add_21", "trainable": true, "dtype": "float32"}, "name": "add_21", "inbound_nodes": [[["BN1D_Stage_4_Block_B_c", 0, 0, {}], ["tf_op_layer_Relu_64", 0, 0, {}]]]}, {"class_name": "TensorFlowOpLayer", "config": {"name": "Relu_27", "trainable": true, "dtype": "float32", "node_def": {"name": "Relu_27", "op": "Relu", "input": ["add_8/Identity"], "attr": {"T": {"type": "DT_FLOAT"}}}, "constants": {}}, "name": "tf_op_layer_Relu_27", "inbound_nodes": [[["add_8", 0, 0, {}]]]}, {"class_name": "TensorFlowOpLayer", "config": {"name": "Relu_67", "trainable": true, "dtype": "float32", "node_def": {"name": "Relu_67", "op": "Relu", "input": ["add_21/Identity"], "attr": {"T": {"type": "DT_FLOAT"}}}, "constants": {}}, "name": "tf_op_layer_Relu_67", "inbound_nodes": [[["add_21", 0, 0, {}]]]}, {"class_name": "Conv2D", "config": {"name": "Conv2D_Stage_4_Block_C_a", "trainable": true, "dtype": "float32", "filters": 128, "kernel_size": [1, 1], "strides": [1, 1], "padding": "valid", "data_format": "channels_last", "dilation_rate": [1, 1], "activation": "linear", "use_bias": true, "kernel_initializer": {"class_name": "GlorotUniform", "config": {"seed": null}}, "bias_initializer": {"class_name": "Zeros", "config": {}}, "kernel_regularizer": null, "bias_regularizer": null, "activity_regularizer": null, "kernel_constraint": null, "bias_constraint": null}, "name": "Conv2D_Stage_4_Block_C_a", "inbound_nodes": [[["tf_op_layer_Relu_27", 0, 0, {}]]]}, {"class_name": "Conv1D", "config": {"name": "Conv1D_Stage_4_Block_C_a", "trainable": true, "dtype": "float32", "filters": 128, "kernel_size": [1], "strides": [1], "padding": "valid", "data_format": "channels_last", "dilation_rate": [1], "activation": "linear", "use_bias": true, "kernel_initializer": {"class_name": "GlorotUniform", "config": {"seed": null}}, "bias_initializer": {"class_name": "Zeros", "config": {}}, "kernel_regularizer": null, "bias_regularizer": null, "activity_regularizer": null, "kernel_constraint": null, "bias_constraint": null}, "name": "Conv1D_Stage_4_Block_C_a", "inbound_nodes": [[["tf_op_layer_Relu_67", 0, 0, {}]]]}, {"class_name": "BatchNormalization", "config": {"name": "BN2D_Stage_4_Block_C_a", "trainable": true, "dtype": "float32", "axis": [3], "momentum": 0.99, "epsilon": 0.001, "center": true, "scale": true, "beta_initializer": {"class_name": "Zeros", "config": {}}, "gamma_initializer": {"class_name": "Ones", "config": {}}, "moving_mean_initializer": {"class_name": "Zeros", "config": {}}, "moving_variance_initializer": {"class_name": "Ones", "config": {}}, "beta_regularizer": null, "gamma_regularizer": null, "beta_constraint": null, "gamma_constraint": null}, "name": "BN2D_Stage_4_Block_C_a", "inbound_nodes": [[["Conv2D_Stage_4_Block_C_a", 0, 0, {}]]]}, {"class_name": "BatchNormalization", "config": {"name": "BN1D_Stage_4_Block_C_a", "trainable": true, "dtype": "float32", "axis": [2], "momentum": 0.99, "epsilon": 0.001, "center": true, "scale": true, "beta_initializer": {"class_name": "Zeros", "config": {}}, "gamma_initializer": {"class_name": "Ones", "config": {}}, "moving_mean_initializer": {"class_name": "Zeros", "config": {}}, "moving_variance_initializer": {"class_name": "Ones", "config": {}}, "beta_regularizer": null, "gamma_regularizer": null, "beta_constraint": null, "gamma_constraint": null}, "name": "BN1D_Stage_4_Block_C_a", "inbound_nodes": [[["Conv1D_Stage_4_Block_C_a", 0, 0, {}]]]}, {"class_name": "TensorFlowOpLayer", "config": {"name": "Relu_28", "trainable": true, "dtype": "float32", "node_def": {"name": "Relu_28", "op": "Relu", "input": ["BN2D_Stage_4_Block_C_a/Identity"], "attr": {"T": {"type": "DT_FLOAT"}}}, "constants": {}}, "name": "tf_op_layer_Relu_28", "inbound_nodes": [[["BN2D_Stage_4_Block_C_a", 0, 0, {}]]]}, {"class_name": "TensorFlowOpLayer", "config": {"name": "Relu_68", "trainable": true, "dtype": "float32", "node_def": {"name": "Relu_68", "op": "Relu", "input": ["BN1D_Stage_4_Block_C_a/Identity"], "attr": {"T": {"type": "DT_FLOAT"}}}, "constants": {}}, "name": "tf_op_layer_Relu_68", "inbound_nodes": [[["BN1D_Stage_4_Block_C_a", 0, 0, {}]]]}, {"class_name": "Conv2D", "config": {"name": "Conv2D_Stage_4_Block_C_b", "trainable": true, "dtype": "float32", "filters": 128, "kernel_size": [3, 3], "strides": [1, 1], "padding": "same", "data_format": "channels_last", "dilation_rate": [1, 1], "activation": "linear", "use_bias": true, "kernel_initializer": {"class_name": "GlorotUniform", "config": {"seed": null}}, "bias_initializer": {"class_name": "Zeros", "config": {}}, "kernel_regularizer": null, "bias_regularizer": null, "activity_regularizer": null, "kernel_constraint": null, "bias_constraint": null}, "name": "Conv2D_Stage_4_Block_C_b", "inbound_nodes": [[["tf_op_layer_Relu_28", 0, 0, {}]]]}, {"class_name": "Conv1D", "config": {"name": "Conv1D_Stage_4_Block_C_b", "trainable": true, "dtype": "float32", "filters": 128, "kernel_size": [3], "strides": [1], "padding": "same", "data_format": "channels_last", "dilation_rate": [1], "activation": "linear", "use_bias": true, "kernel_initializer": {"class_name": "GlorotUniform", "config": {"seed": null}}, "bias_initializer": {"class_name": "Zeros", "config": {}}, "kernel_regularizer": null, "bias_regularizer": null, "activity_regularizer": null, "kernel_constraint": null, "bias_constraint": null}, "name": "Conv1D_Stage_4_Block_C_b", "inbound_nodes": [[["tf_op_layer_Relu_68", 0, 0, {}]]]}, {"class_name": "BatchNormalization", "config": {"name": "BN2D_Stage_4_Block_C_b", "trainable": true, "dtype": "float32", "axis": [3], "momentum": 0.99, "epsilon": 0.001, "center": true, "scale": true, "beta_initializer": {"class_name": "Zeros", "config": {}}, "gamma_initializer": {"class_name": "Ones", "config": {}}, "moving_mean_initializer": {"class_name": "Zeros", "config": {}}, "moving_variance_initializer": {"class_name": "Ones", "config": {}}, "beta_regularizer": null, "gamma_regularizer": null, "beta_constraint": null, "gamma_constraint": null}, "name": "BN2D_Stage_4_Block_C_b", "inbound_nodes": [[["Conv2D_Stage_4_Block_C_b", 0, 0, {}]]]}, {"class_name": "BatchNormalization", "config": {"name": "BN1D_Stage_4_Block_C_b", "trainable": true, "dtype": "float32", "axis": [2], "momentum": 0.99, "epsilon": 0.001, "center": true, "scale": true, "beta_initializer": {"class_name": "Zeros", "config": {}}, "gamma_initializer": {"class_name": "Ones", "config": {}}, "moving_mean_initializer": {"class_name": "Zeros", "config": {}}, "moving_variance_initializer": {"class_name": "Ones", "config": {}}, "beta_regularizer": null, "gamma_regularizer": null, "beta_constraint": null, "gamma_constraint": null}, "name": "BN1D_Stage_4_Block_C_b", "inbound_nodes": [[["Conv1D_Stage_4_Block_C_b", 0, 0, {}]]]}, {"class_name": "TensorFlowOpLayer", "config": {"name": "Relu_29", "trainable": true, "dtype": "float32", "node_def": {"name": "Relu_29", "op": "Relu", "input": ["BN2D_Stage_4_Block_C_b/Identity"], "attr": {"T": {"type": "DT_FLOAT"}}}, "constants": {}}, "name": "tf_op_layer_Relu_29", "inbound_nodes": [[["BN2D_Stage_4_Block_C_b", 0, 0, {}]]]}, {"class_name": "TensorFlowOpLayer", "config": {"name": "Relu_69", "trainable": true, "dtype": "float32", "node_def": {"name": "Relu_69", "op": "Relu", "input": ["BN1D_Stage_4_Block_C_b/Identity"], "attr": {"T": {"type": "DT_FLOAT"}}}, "constants": {}}, "name": "tf_op_layer_Relu_69", "inbound_nodes": [[["BN1D_Stage_4_Block_C_b", 0, 0, {}]]]}, {"class_name": "Conv2D", "config": {"name": "Conv2D_Stage_4_Block_C_c", "trainable": true, "dtype": "float32", "filters": 512, "kernel_size": [1, 1], "strides": [1, 1], "padding": "valid", "data_format": "channels_last", "dilation_rate": [1, 1], "activation": "linear", "use_bias": true, "kernel_initializer": {"class_name": "GlorotUniform", "config": {"seed": null}}, "bias_initializer": {"class_name": "Zeros", "config": {}}, "kernel_regularizer": null, "bias_regularizer": null, "activity_regularizer": null, "kernel_constraint": null, "bias_constraint": null}, "name": "Conv2D_Stage_4_Block_C_c", "inbound_nodes": [[["tf_op_layer_Relu_29", 0, 0, {}]]]}, {"class_name": "Conv1D", "config": {"name": "Conv1D_Stage_4_Block_C_c", "trainable": true, "dtype": "float32", "filters": 512, "kernel_size": [1], "strides": [1], "padding": "valid", "data_format": "channels_last", "dilation_rate": [1], "activation": "linear", "use_bias": true, "kernel_initializer": {"class_name": "GlorotUniform", "config": {"seed": null}}, "bias_initializer": {"class_name": "Zeros", "config": {}}, "kernel_regularizer": null, "bias_regularizer": null, "activity_regularizer": null, "kernel_constraint": null, "bias_constraint": null}, "name": "Conv1D_Stage_4_Block_C_c", "inbound_nodes": [[["tf_op_layer_Relu_69", 0, 0, {}]]]}, {"class_name": "BatchNormalization", "config": {"name": "BN2D_Stage_4_Block_C_c", "trainable": true, "dtype": "float32", "axis": [3], "momentum": 0.99, "epsilon": 0.001, "center": true, "scale": true, "beta_initializer": {"class_name": "Zeros", "config": {}}, "gamma_initializer": {"class_name": "Ones", "config": {}}, "moving_mean_initializer": {"class_name": "Zeros", "config": {}}, "moving_variance_initializer": {"class_name": "Ones", "config": {}}, "beta_regularizer": null, "gamma_regularizer": null, "beta_constraint": null, "gamma_constraint": null}, "name": "BN2D_Stage_4_Block_C_c", "inbound_nodes": [[["Conv2D_Stage_4_Block_C_c", 0, 0, {}]]]}, {"class_name": "BatchNormalization", "config": {"name": "BN1D_Stage_4_Block_C_c", "trainable": true, "dtype": "float32", "axis": [2], "momentum": 0.99, "epsilon": 0.001, "center": true, "scale": true, "beta_initializer": {"class_name": "Zeros", "config": {}}, "gamma_initializer": {"class_name": "Ones", "config": {}}, "moving_mean_initializer": {"class_name": "Zeros", "config": {}}, "moving_variance_initializer": {"class_name": "Ones", "config": {}}, "beta_regularizer": null, "gamma_regularizer": null, "beta_constraint": null, "gamma_constraint": null}, "name": "BN1D_Stage_4_Block_C_c", "inbound_nodes": [[["Conv1D_Stage_4_Block_C_c", 0, 0, {}]]]}, {"class_name": "Add", "config": {"name": "add_9", "trainable": true, "dtype": "float32"}, "name": "add_9", "inbound_nodes": [[["BN2D_Stage_4_Block_C_c", 0, 0, {}], ["tf_op_layer_Relu_27", 0, 0, {}]]]}, {"class_name": "Add", "config": {"name": "add_22", "trainable": true, "dtype": "float32"}, "name": "add_22", "inbound_nodes": [[["BN1D_Stage_4_Block_C_c", 0, 0, {}], ["tf_op_layer_Relu_67", 0, 0, {}]]]}, {"class_name": "TensorFlowOpLayer", "config": {"name": "Relu_30", "trainable": true, "dtype": "float32", "node_def": {"name": "Relu_30", "op": "Relu", "input": ["add_9/Identity"], "attr": {"T": {"type": "DT_FLOAT"}}}, "constants": {}}, "name": "tf_op_layer_Relu_30", "inbound_nodes": [[["add_9", 0, 0, {}]]]}, {"class_name": "TensorFlowOpLayer", "config": {"name": "Relu_70", "trainable": true, "dtype": "float32", "node_def": {"name": "Relu_70", "op": "Relu", "input": ["add_22/Identity"], "attr": {"T": {"type": "DT_FLOAT"}}}, "constants": {}}, "name": "tf_op_layer_Relu_70", "inbound_nodes": [[["add_22", 0, 0, {}]]]}, {"class_name": "Conv2D", "config": {"name": "Conv2D_Stage_4_Block_D_a", "trainable": true, "dtype": "float32", "filters": 128, "kernel_size": [1, 1], "strides": [1, 1], "padding": "valid", "data_format": "channels_last", "dilation_rate": [1, 1], "activation": "linear", "use_bias": true, "kernel_initializer": {"class_name": "GlorotUniform", "config": {"seed": null}}, "bias_initializer": {"class_name": "Zeros", "config": {}}, "kernel_regularizer": null, "bias_regularizer": null, "activity_regularizer": null, "kernel_constraint": null, "bias_constraint": null}, "name": "Conv2D_Stage_4_Block_D_a", "inbound_nodes": [[["tf_op_layer_Relu_30", 0, 0, {}]]]}, {"class_name": "Conv1D", "config": {"name": "Conv1D_Stage_4_Block_D_a", "trainable": true, "dtype": "float32", "filters": 128, "kernel_size": [1], "strides": [1], "padding": "valid", "data_format": "channels_last", "dilation_rate": [1], "activation": "linear", "use_bias": true, "kernel_initializer": {"class_name": "GlorotUniform", "config": {"seed": null}}, "bias_initializer": {"class_name": "Zeros", "config": {}}, "kernel_regularizer": null, "bias_regularizer": null, "activity_regularizer": null, "kernel_constraint": null, "bias_constraint": null}, "name": "Conv1D_Stage_4_Block_D_a", "inbound_nodes": [[["tf_op_layer_Relu_70", 0, 0, {}]]]}, {"class_name": "BatchNormalization", "config": {"name": "BN2D_Stage_4_Block_D_a", "trainable": true, "dtype": "float32", "axis": [3], "momentum": 0.99, "epsilon": 0.001, "center": true, "scale": true, "beta_initializer": {"class_name": "Zeros", "config": {}}, "gamma_initializer": {"class_name": "Ones", "config": {}}, "moving_mean_initializer": {"class_name": "Zeros", "config": {}}, "moving_variance_initializer": {"class_name": "Ones", "config": {}}, "beta_regularizer": null, "gamma_regularizer": null, "beta_constraint": null, "gamma_constraint": null}, "name": "BN2D_Stage_4_Block_D_a", "inbound_nodes": [[["Conv2D_Stage_4_Block_D_a", 0, 0, {}]]]}, {"class_name": "BatchNormalization", "config": {"name": "BN1D_Stage_4_Block_D_a", "trainable": true, "dtype": "float32", "axis": [2], "momentum": 0.99, "epsilon": 0.001, "center": true, "scale": true, "beta_initializer": {"class_name": "Zeros", "config": {}}, "gamma_initializer": {"class_name": "Ones", "config": {}}, "moving_mean_initializer": {"class_name": "Zeros", "config": {}}, "moving_variance_initializer": {"class_name": "Ones", "config": {}}, "beta_regularizer": null, "gamma_regularizer": null, "beta_constraint": null, "gamma_constraint": null}, "name": "BN1D_Stage_4_Block_D_a", "inbound_nodes": [[["Conv1D_Stage_4_Block_D_a", 0, 0, {}]]]}, {"class_name": "TensorFlowOpLayer", "config": {"name": "Relu_31", "trainable": true, "dtype": "float32", "node_def": {"name": "Relu_31", "op": "Relu", "input": ["BN2D_Stage_4_Block_D_a/Identity"], "attr": {"T": {"type": "DT_FLOAT"}}}, "constants": {}}, "name": "tf_op_layer_Relu_31", "inbound_nodes": [[["BN2D_Stage_4_Block_D_a", 0, 0, {}]]]}, {"class_name": "TensorFlowOpLayer", "config": {"name": "Relu_71", "trainable": true, "dtype": "float32", "node_def": {"name": "Relu_71", "op": "Relu", "input": ["BN1D_Stage_4_Block_D_a/Identity"], "attr": {"T": {"type": "DT_FLOAT"}}}, "constants": {}}, "name": "tf_op_layer_Relu_71", "inbound_nodes": [[["BN1D_Stage_4_Block_D_a", 0, 0, {}]]]}, {"class_name": "Conv2D", "config": {"name": "Conv2D_Stage_4_Block_D_b", "trainable": true, "dtype": "float32", "filters": 128, "kernel_size": [3, 3], "strides": [1, 1], "padding": "same", "data_format": "channels_last", "dilation_rate": [1, 1], "activation": "linear", "use_bias": true, "kernel_initializer": {"class_name": "GlorotUniform", "config": {"seed": null}}, "bias_initializer": {"class_name": "Zeros", "config": {}}, "kernel_regularizer": null, "bias_regularizer": null, "activity_regularizer": null, "kernel_constraint": null, "bias_constraint": null}, "name": "Conv2D_Stage_4_Block_D_b", "inbound_nodes": [[["tf_op_layer_Relu_31", 0, 0, {}]]]}, {"class_name": "Conv1D", "config": {"name": "Conv1D_Stage_4_Block_D_b", "trainable": true, "dtype": "float32", "filters": 128, "kernel_size": [3], "strides": [1], "padding": "same", "data_format": "channels_last", "dilation_rate": [1], "activation": "linear", "use_bias": true, "kernel_initializer": {"class_name": "GlorotUniform", "config": {"seed": null}}, "bias_initializer": {"class_name": "Zeros", "config": {}}, "kernel_regularizer": null, "bias_regularizer": null, "activity_regularizer": null, "kernel_constraint": null, "bias_constraint": null}, "name": "Conv1D_Stage_4_Block_D_b", "inbound_nodes": [[["tf_op_layer_Relu_71", 0, 0, {}]]]}, {"class_name": "BatchNormalization", "config": {"name": "BN2D_Stage_4_Block_D_b", "trainable": true, "dtype": "float32", "axis": [3], "momentum": 0.99, "epsilon": 0.001, "center": true, "scale": true, "beta_initializer": {"class_name": "Zeros", "config": {}}, "gamma_initializer": {"class_name": "Ones", "config": {}}, "moving_mean_initializer": {"class_name": "Zeros", "config": {}}, "moving_variance_initializer": {"class_name": "Ones", "config": {}}, "beta_regularizer": null, "gamma_regularizer": null, "beta_constraint": null, "gamma_constraint": null}, "name": "BN2D_Stage_4_Block_D_b", "inbound_nodes": [[["Conv2D_Stage_4_Block_D_b", 0, 0, {}]]]}, {"class_name": "BatchNormalization", "config": {"name": "BN1D_Stage_4_Block_D_b", "trainable": true, "dtype": "float32", "axis": [2], "momentum": 0.99, "epsilon": 0.001, "center": true, "scale": true, "beta_initializer": {"class_name": "Zeros", "config": {}}, "gamma_initializer": {"class_name": "Ones", "config": {}}, "moving_mean_initializer": {"class_name": "Zeros", "config": {}}, "moving_variance_initializer": {"class_name": "Ones", "config": {}}, "beta_regularizer": null, "gamma_regularizer": null, "beta_constraint": null, "gamma_constraint": null}, "name": "BN1D_Stage_4_Block_D_b", "inbound_nodes": [[["Conv1D_Stage_4_Block_D_b", 0, 0, {}]]]}, {"class_name": "TensorFlowOpLayer", "config": {"name": "Relu_32", "trainable": true, "dtype": "float32", "node_def": {"name": "Relu_32", "op": "Relu", "input": ["BN2D_Stage_4_Block_D_b/Identity"], "attr": {"T": {"type": "DT_FLOAT"}}}, "constants": {}}, "name": "tf_op_layer_Relu_32", "inbound_nodes": [[["BN2D_Stage_4_Block_D_b", 0, 0, {}]]]}, {"class_name": "TensorFlowOpLayer", "config": {"name": "Relu_72", "trainable": true, "dtype": "float32", "node_def": {"name": "Relu_72", "op": "Relu", "input": ["BN1D_Stage_4_Block_D_b/Identity"], "attr": {"T": {"type": "DT_FLOAT"}}}, "constants": {}}, "name": "tf_op_layer_Relu_72", "inbound_nodes": [[["BN1D_Stage_4_Block_D_b", 0, 0, {}]]]}, {"class_name": "Conv2D", "config": {"name": "Conv2D_Stage_4_Block_D_c", "trainable": true, "dtype": "float32", "filters": 512, "kernel_size": [1, 1], "strides": [1, 1], "padding": "valid", "data_format": "channels_last", "dilation_rate": [1, 1], "activation": "linear", "use_bias": true, "kernel_initializer": {"class_name": "GlorotUniform", "config": {"seed": null}}, "bias_initializer": {"class_name": "Zeros", "config": {}}, "kernel_regularizer": null, "bias_regularizer": null, "activity_regularizer": null, "kernel_constraint": null, "bias_constraint": null}, "name": "Conv2D_Stage_4_Block_D_c", "inbound_nodes": [[["tf_op_layer_Relu_32", 0, 0, {}]]]}, {"class_name": "Conv1D", "config": {"name": "Conv1D_Stage_4_Block_D_c", "trainable": true, "dtype": "float32", "filters": 512, "kernel_size": [1], "strides": [1], "padding": "valid", "data_format": "channels_last", "dilation_rate": [1], "activation": "linear", "use_bias": true, "kernel_initializer": {"class_name": "GlorotUniform", "config": {"seed": null}}, "bias_initializer": {"class_name": "Zeros", "config": {}}, "kernel_regularizer": null, "bias_regularizer": null, "activity_regularizer": null, "kernel_constraint": null, "bias_constraint": null}, "name": "Conv1D_Stage_4_Block_D_c", "inbound_nodes": [[["tf_op_layer_Relu_72", 0, 0, {}]]]}, {"class_name": "BatchNormalization", "config": {"name": "BN2D_Stage_4_Block_D_c", "trainable": true, "dtype": "float32", "axis": [3], "momentum": 0.99, "epsilon": 0.001, "center": true, "scale": true, "beta_initializer": {"class_name": "Zeros", "config": {}}, "gamma_initializer": {"class_name": "Ones", "config": {}}, "moving_mean_initializer": {"class_name": "Zeros", "config": {}}, "moving_variance_initializer": {"class_name": "Ones", "config": {}}, "beta_regularizer": null, "gamma_regularizer": null, "beta_constraint": null, "gamma_constraint": null}, "name": "BN2D_Stage_4_Block_D_c", "inbound_nodes": [[["Conv2D_Stage_4_Block_D_c", 0, 0, {}]]]}, {"class_name": "BatchNormalization", "config": {"name": "BN1D_Stage_4_Block_D_c", "trainable": true, "dtype": "float32", "axis": [2], "momentum": 0.99, "epsilon": 0.001, "center": true, "scale": true, "beta_initializer": {"class_name": "Zeros", "config": {}}, "gamma_initializer": {"class_name": "Ones", "config": {}}, "moving_mean_initializer": {"class_name": "Zeros", "config": {}}, "moving_variance_initializer": {"class_name": "Ones", "config": {}}, "beta_regularizer": null, "gamma_regularizer": null, "beta_constraint": null, "gamma_constraint": null}, "name": "BN1D_Stage_4_Block_D_c", "inbound_nodes": [[["Conv1D_Stage_4_Block_D_c", 0, 0, {}]]]}, {"class_name": "Add", "config": {"name": "add_10", "trainable": true, "dtype": "float32"}, "name": "add_10", "inbound_nodes": [[["BN2D_Stage_4_Block_D_c", 0, 0, {}], ["tf_op_layer_Relu_30", 0, 0, {}]]]}, {"class_name": "Add", "config": {"name": "add_23", "trainable": true, "dtype": "float32"}, "name": "add_23", "inbound_nodes": [[["BN1D_Stage_4_Block_D_c", 0, 0, {}], ["tf_op_layer_Relu_70", 0, 0, {}]]]}, {"class_name": "TensorFlowOpLayer", "config": {"name": "Relu_33", "trainable": true, "dtype": "float32", "node_def": {"name": "Relu_33", "op": "Relu", "input": ["add_10/Identity"], "attr": {"T": {"type": "DT_FLOAT"}}}, "constants": {}}, "name": "tf_op_layer_Relu_33", "inbound_nodes": [[["add_10", 0, 0, {}]]]}, {"class_name": "TensorFlowOpLayer", "config": {"name": "Relu_73", "trainable": true, "dtype": "float32", "node_def": {"name": "Relu_73", "op": "Relu", "input": ["add_23/Identity"], "attr": {"T": {"type": "DT_FLOAT"}}}, "constants": {}}, "name": "tf_op_layer_Relu_73", "inbound_nodes": [[["add_23", 0, 0, {}]]]}, {"class_name": "Conv2D", "config": {"name": "Conv2D_Stage_4_Block_E_a", "trainable": true, "dtype": "float32", "filters": 128, "kernel_size": [1, 1], "strides": [1, 1], "padding": "valid", "data_format": "channels_last", "dilation_rate": [1, 1], "activation": "linear", "use_bias": true, "kernel_initializer": {"class_name": "GlorotUniform", "config": {"seed": null}}, "bias_initializer": {"class_name": "Zeros", "config": {}}, "kernel_regularizer": null, "bias_regularizer": null, "activity_regularizer": null, "kernel_constraint": null, "bias_constraint": null}, "name": "Conv2D_Stage_4_Block_E_a", "inbound_nodes": [[["tf_op_layer_Relu_33", 0, 0, {}]]]}, {"class_name": "Conv1D", "config": {"name": "Conv1D_Stage_4_Block_E_a", "trainable": true, "dtype": "float32", "filters": 128, "kernel_size": [1], "strides": [1], "padding": "valid", "data_format": "channels_last", "dilation_rate": [1], "activation": "linear", "use_bias": true, "kernel_initializer": {"class_name": "GlorotUniform", "config": {"seed": null}}, "bias_initializer": {"class_name": "Zeros", "config": {}}, "kernel_regularizer": null, "bias_regularizer": null, "activity_regularizer": null, "kernel_constraint": null, "bias_constraint": null}, "name": "Conv1D_Stage_4_Block_E_a", "inbound_nodes": [[["tf_op_layer_Relu_73", 0, 0, {}]]]}, {"class_name": "BatchNormalization", "config": {"name": "BN2D_Stage_4_Block_E_a", "trainable": true, "dtype": "float32", "axis": [3], "momentum": 0.99, "epsilon": 0.001, "center": true, "scale": true, "beta_initializer": {"class_name": "Zeros", "config": {}}, "gamma_initializer": {"class_name": "Ones", "config": {}}, "moving_mean_initializer": {"class_name": "Zeros", "config": {}}, "moving_variance_initializer": {"class_name": "Ones", "config": {}}, "beta_regularizer": null, "gamma_regularizer": null, "beta_constraint": null, "gamma_constraint": null}, "name": "BN2D_Stage_4_Block_E_a", "inbound_nodes": [[["Conv2D_Stage_4_Block_E_a", 0, 0, {}]]]}, {"class_name": "BatchNormalization", "config": {"name": "BN1D_Stage_4_Block_E_a", "trainable": true, "dtype": "float32", "axis": [2], "momentum": 0.99, "epsilon": 0.001, "center": true, "scale": true, "beta_initializer": {"class_name": "Zeros", "config": {}}, "gamma_initializer": {"class_name": "Ones", "config": {}}, "moving_mean_initializer": {"class_name": "Zeros", "config": {}}, "moving_variance_initializer": {"class_name": "Ones", "config": {}}, "beta_regularizer": null, "gamma_regularizer": null, "beta_constraint": null, "gamma_constraint": null}, "name": "BN1D_Stage_4_Block_E_a", "inbound_nodes": [[["Conv1D_Stage_4_Block_E_a", 0, 0, {}]]]}, {"class_name": "TensorFlowOpLayer", "config": {"name": "Relu_34", "trainable": true, "dtype": "float32", "node_def": {"name": "Relu_34", "op": "Relu", "input": ["BN2D_Stage_4_Block_E_a/Identity"], "attr": {"T": {"type": "DT_FLOAT"}}}, "constants": {}}, "name": "tf_op_layer_Relu_34", "inbound_nodes": [[["BN2D_Stage_4_Block_E_a", 0, 0, {}]]]}, {"class_name": "TensorFlowOpLayer", "config": {"name": "Relu_74", "trainable": true, "dtype": "float32", "node_def": {"name": "Relu_74", "op": "Relu", "input": ["BN1D_Stage_4_Block_E_a/Identity"], "attr": {"T": {"type": "DT_FLOAT"}}}, "constants": {}}, "name": "tf_op_layer_Relu_74", "inbound_nodes": [[["BN1D_Stage_4_Block_E_a", 0, 0, {}]]]}, {"class_name": "Conv2D", "config": {"name": "Conv2D_Stage_4_Block_E_b", "trainable": true, "dtype": "float32", "filters": 128, "kernel_size": [3, 3], "strides": [1, 1], "padding": "same", "data_format": "channels_last", "dilation_rate": [1, 1], "activation": "linear", "use_bias": true, "kernel_initializer": {"class_name": "GlorotUniform", "config": {"seed": null}}, "bias_initializer": {"class_name": "Zeros", "config": {}}, "kernel_regularizer": null, "bias_regularizer": null, "activity_regularizer": null, "kernel_constraint": null, "bias_constraint": null}, "name": "Conv2D_Stage_4_Block_E_b", "inbound_nodes": [[["tf_op_layer_Relu_34", 0, 0, {}]]]}, {"class_name": "Conv1D", "config": {"name": "Conv1D_Stage_4_Block_E_b", "trainable": true, "dtype": "float32", "filters": 128, "kernel_size": [3], "strides": [1], "padding": "same", "data_format": "channels_last", "dilation_rate": [1], "activation": "linear", "use_bias": true, "kernel_initializer": {"class_name": "GlorotUniform", "config": {"seed": null}}, "bias_initializer": {"class_name": "Zeros", "config": {}}, "kernel_regularizer": null, "bias_regularizer": null, "activity_regularizer": null, "kernel_constraint": null, "bias_constraint": null}, "name": "Conv1D_Stage_4_Block_E_b", "inbound_nodes": [[["tf_op_layer_Relu_74", 0, 0, {}]]]}, {"class_name": "BatchNormalization", "config": {"name": "BN2D_Stage_4_Block_E_b", "trainable": true, "dtype": "float32", "axis": [3], "momentum": 0.99, "epsilon": 0.001, "center": true, "scale": true, "beta_initializer": {"class_name": "Zeros", "config": {}}, "gamma_initializer": {"class_name": "Ones", "config": {}}, "moving_mean_initializer": {"class_name": "Zeros", "config": {}}, "moving_variance_initializer": {"class_name": "Ones", "config": {}}, "beta_regularizer": null, "gamma_regularizer": null, "beta_constraint": null, "gamma_constraint": null}, "name": "BN2D_Stage_4_Block_E_b", "inbound_nodes": [[["Conv2D_Stage_4_Block_E_b", 0, 0, {}]]]}, {"class_name": "BatchNormalization", "config": {"name": "BN1D_Stage_4_Block_E_b", "trainable": true, "dtype": "float32", "axis": [2], "momentum": 0.99, "epsilon": 0.001, "center": true, "scale": true, "beta_initializer": {"class_name": "Zeros", "config": {}}, "gamma_initializer": {"class_name": "Ones", "config": {}}, "moving_mean_initializer": {"class_name": "Zeros", "config": {}}, "moving_variance_initializer": {"class_name": "Ones", "config": {}}, "beta_regularizer": null, "gamma_regularizer": null, "beta_constraint": null, "gamma_constraint": null}, "name": "BN1D_Stage_4_Block_E_b", "inbound_nodes": [[["Conv1D_Stage_4_Block_E_b", 0, 0, {}]]]}, {"class_name": "TensorFlowOpLayer", "config": {"name": "Relu_35", "trainable": true, "dtype": "float32", "node_def": {"name": "Relu_35", "op": "Relu", "input": ["BN2D_Stage_4_Block_E_b/Identity"], "attr": {"T": {"type": "DT_FLOAT"}}}, "constants": {}}, "name": "tf_op_layer_Relu_35", "inbound_nodes": [[["BN2D_Stage_4_Block_E_b", 0, 0, {}]]]}, {"class_name": "TensorFlowOpLayer", "config": {"name": "Relu_75", "trainable": true, "dtype": "float32", "node_def": {"name": "Relu_75", "op": "Relu", "input": ["BN1D_Stage_4_Block_E_b/Identity"], "attr": {"T": {"type": "DT_FLOAT"}}}, "constants": {}}, "name": "tf_op_layer_Relu_75", "inbound_nodes": [[["BN1D_Stage_4_Block_E_b", 0, 0, {}]]]}, {"class_name": "Conv2D", "config": {"name": "Conv2D_Stage_4_Block_E_c", "trainable": true, "dtype": "float32", "filters": 512, "kernel_size": [1, 1], "strides": [1, 1], "padding": "valid", "data_format": "channels_last", "dilation_rate": [1, 1], "activation": "linear", "use_bias": true, "kernel_initializer": {"class_name": "GlorotUniform", "config": {"seed": null}}, "bias_initializer": {"class_name": "Zeros", "config": {}}, "kernel_regularizer": null, "bias_regularizer": null, "activity_regularizer": null, "kernel_constraint": null, "bias_constraint": null}, "name": "Conv2D_Stage_4_Block_E_c", "inbound_nodes": [[["tf_op_layer_Relu_35", 0, 0, {}]]]}, {"class_name": "Conv1D", "config": {"name": "Conv1D_Stage_4_Block_E_c", "trainable": true, "dtype": "float32", "filters": 512, "kernel_size": [1], "strides": [1], "padding": "valid", "data_format": "channels_last", "dilation_rate": [1], "activation": "linear", "use_bias": true, "kernel_initializer": {"class_name": "GlorotUniform", "config": {"seed": null}}, "bias_initializer": {"class_name": "Zeros", "config": {}}, "kernel_regularizer": null, "bias_regularizer": null, "activity_regularizer": null, "kernel_constraint": null, "bias_constraint": null}, "name": "Conv1D_Stage_4_Block_E_c", "inbound_nodes": [[["tf_op_layer_Relu_75", 0, 0, {}]]]}, {"class_name": "BatchNormalization", "config": {"name": "BN2D_Stage_4_Block_E_c", "trainable": true, "dtype": "float32", "axis": [3], "momentum": 0.99, "epsilon": 0.001, "center": true, "scale": true, "beta_initializer": {"class_name": "Zeros", "config": {}}, "gamma_initializer": {"class_name": "Ones", "config": {}}, "moving_mean_initializer": {"class_name": "Zeros", "config": {}}, "moving_variance_initializer": {"class_name": "Ones", "config": {}}, "beta_regularizer": null, "gamma_regularizer": null, "beta_constraint": null, "gamma_constraint": null}, "name": "BN2D_Stage_4_Block_E_c", "inbound_nodes": [[["Conv2D_Stage_4_Block_E_c", 0, 0, {}]]]}, {"class_name": "BatchNormalization", "config": {"name": "BN1D_Stage_4_Block_E_c", "trainable": true, "dtype": "float32", "axis": [2], "momentum": 0.99, "epsilon": 0.001, "center": true, "scale": true, "beta_initializer": {"class_name": "Zeros", "config": {}}, "gamma_initializer": {"class_name": "Ones", "config": {}}, "moving_mean_initializer": {"class_name": "Zeros", "config": {}}, "moving_variance_initializer": {"class_name": "Ones", "config": {}}, "beta_regularizer": null, "gamma_regularizer": null, "beta_constraint": null, "gamma_constraint": null}, "name": "BN1D_Stage_4_Block_E_c", "inbound_nodes": [[["Conv1D_Stage_4_Block_E_c", 0, 0, {}]]]}, {"class_name": "Add", "config": {"name": "add_11", "trainable": true, "dtype": "float32"}, "name": "add_11", "inbound_nodes": [[["BN2D_Stage_4_Block_E_c", 0, 0, {}], ["tf_op_layer_Relu_33", 0, 0, {}]]]}, {"class_name": "Add", "config": {"name": "add_24", "trainable": true, "dtype": "float32"}, "name": "add_24", "inbound_nodes": [[["BN1D_Stage_4_Block_E_c", 0, 0, {}], ["tf_op_layer_Relu_73", 0, 0, {}]]]}, {"class_name": "TensorFlowOpLayer", "config": {"name": "Relu_36", "trainable": true, "dtype": "float32", "node_def": {"name": "Relu_36", "op": "Relu", "input": ["add_11/Identity"], "attr": {"T": {"type": "DT_FLOAT"}}}, "constants": {}}, "name": "tf_op_layer_Relu_36", "inbound_nodes": [[["add_11", 0, 0, {}]]]}, {"class_name": "TensorFlowOpLayer", "config": {"name": "Relu_76", "trainable": true, "dtype": "float32", "node_def": {"name": "Relu_76", "op": "Relu", "input": ["add_24/Identity"], "attr": {"T": {"type": "DT_FLOAT"}}}, "constants": {}}, "name": "tf_op_layer_Relu_76", "inbound_nodes": [[["add_24", 0, 0, {}]]]}, {"class_name": "Conv2D", "config": {"name": "Conv2D_Stage_4_Block_F_a", "trainable": true, "dtype": "float32", "filters": 128, "kernel_size": [1, 1], "strides": [1, 1], "padding": "valid", "data_format": "channels_last", "dilation_rate": [1, 1], "activation": "linear", "use_bias": true, "kernel_initializer": {"class_name": "GlorotUniform", "config": {"seed": null}}, "bias_initializer": {"class_name": "Zeros", "config": {}}, "kernel_regularizer": null, "bias_regularizer": null, "activity_regularizer": null, "kernel_constraint": null, "bias_constraint": null}, "name": "Conv2D_Stage_4_Block_F_a", "inbound_nodes": [[["tf_op_layer_Relu_36", 0, 0, {}]]]}, {"class_name": "Conv1D", "config": {"name": "Conv1D_Stage_4_Block_F_a", "trainable": true, "dtype": "float32", "filters": 128, "kernel_size": [1], "strides": [1], "padding": "valid", "data_format": "channels_last", "dilation_rate": [1], "activation": "linear", "use_bias": true, "kernel_initializer": {"class_name": "GlorotUniform", "config": {"seed": null}}, "bias_initializer": {"class_name": "Zeros", "config": {}}, "kernel_regularizer": null, "bias_regularizer": null, "activity_regularizer": null, "kernel_constraint": null, "bias_constraint": null}, "name": "Conv1D_Stage_4_Block_F_a", "inbound_nodes": [[["tf_op_layer_Relu_76", 0, 0, {}]]]}, {"class_name": "BatchNormalization", "config": {"name": "BN2D_Stage_4_Block_F_a", "trainable": true, "dtype": "float32", "axis": [3], "momentum": 0.99, "epsilon": 0.001, "center": true, "scale": true, "beta_initializer": {"class_name": "Zeros", "config": {}}, "gamma_initializer": {"class_name": "Ones", "config": {}}, "moving_mean_initializer": {"class_name": "Zeros", "config": {}}, "moving_variance_initializer": {"class_name": "Ones", "config": {}}, "beta_regularizer": null, "gamma_regularizer": null, "beta_constraint": null, "gamma_constraint": null}, "name": "BN2D_Stage_4_Block_F_a", "inbound_nodes": [[["Conv2D_Stage_4_Block_F_a", 0, 0, {}]]]}, {"class_name": "BatchNormalization", "config": {"name": "BN1D_Stage_4_Block_F_a", "trainable": true, "dtype": "float32", "axis": [2], "momentum": 0.99, "epsilon": 0.001, "center": true, "scale": true, "beta_initializer": {"class_name": "Zeros", "config": {}}, "gamma_initializer": {"class_name": "Ones", "config": {}}, "moving_mean_initializer": {"class_name": "Zeros", "config": {}}, "moving_variance_initializer": {"class_name": "Ones", "config": {}}, "beta_regularizer": null, "gamma_regularizer": null, "beta_constraint": null, "gamma_constraint": null}, "name": "BN1D_Stage_4_Block_F_a", "inbound_nodes": [[["Conv1D_Stage_4_Block_F_a", 0, 0, {}]]]}, {"class_name": "TensorFlowOpLayer", "config": {"name": "Relu_37", "trainable": true, "dtype": "float32", "node_def": {"name": "Relu_37", "op": "Relu", "input": ["BN2D_Stage_4_Block_F_a/Identity"], "attr": {"T": {"type": "DT_FLOAT"}}}, "constants": {}}, "name": "tf_op_layer_Relu_37", "inbound_nodes": [[["BN2D_Stage_4_Block_F_a", 0, 0, {}]]]}, {"class_name": "TensorFlowOpLayer", "config": {"name": "Relu_77", "trainable": true, "dtype": "float32", "node_def": {"name": "Relu_77", "op": "Relu", "input": ["BN1D_Stage_4_Block_F_a/Identity"], "attr": {"T": {"type": "DT_FLOAT"}}}, "constants": {}}, "name": "tf_op_layer_Relu_77", "inbound_nodes": [[["BN1D_Stage_4_Block_F_a", 0, 0, {}]]]}, {"class_name": "Conv2D", "config": {"name": "Conv2D_Stage_4_Block_F_b", "trainable": true, "dtype": "float32", "filters": 128, "kernel_size": [3, 3], "strides": [1, 1], "padding": "same", "data_format": "channels_last", "dilation_rate": [1, 1], "activation": "linear", "use_bias": true, "kernel_initializer": {"class_name": "GlorotUniform", "config": {"seed": null}}, "bias_initializer": {"class_name": "Zeros", "config": {}}, "kernel_regularizer": null, "bias_regularizer": null, "activity_regularizer": null, "kernel_constraint": null, "bias_constraint": null}, "name": "Conv2D_Stage_4_Block_F_b", "inbound_nodes": [[["tf_op_layer_Relu_37", 0, 0, {}]]]}, {"class_name": "Conv1D", "config": {"name": "Conv1D_Stage_4_Block_F_b", "trainable": true, "dtype": "float32", "filters": 128, "kernel_size": [3], "strides": [1], "padding": "same", "data_format": "channels_last", "dilation_rate": [1], "activation": "linear", "use_bias": true, "kernel_initializer": {"class_name": "GlorotUniform", "config": {"seed": null}}, "bias_initializer": {"class_name": "Zeros", "config": {}}, "kernel_regularizer": null, "bias_regularizer": null, "activity_regularizer": null, "kernel_constraint": null, "bias_constraint": null}, "name": "Conv1D_Stage_4_Block_F_b", "inbound_nodes": [[["tf_op_layer_Relu_77", 0, 0, {}]]]}, {"class_name": "BatchNormalization", "config": {"name": "BN2D_Stage_4_Block_F_b", "trainable": true, "dtype": "float32", "axis": [3], "momentum": 0.99, "epsilon": 0.001, "center": true, "scale": true, "beta_initializer": {"class_name": "Zeros", "config": {}}, "gamma_initializer": {"class_name": "Ones", "config": {}}, "moving_mean_initializer": {"class_name": "Zeros", "config": {}}, "moving_variance_initializer": {"class_name": "Ones", "config": {}}, "beta_regularizer": null, "gamma_regularizer": null, "beta_constraint": null, "gamma_constraint": null}, "name": "BN2D_Stage_4_Block_F_b", "inbound_nodes": [[["Conv2D_Stage_4_Block_F_b", 0, 0, {}]]]}, {"class_name": "BatchNormalization", "config": {"name": "BN1D_Stage_4_Block_F_b", "trainable": true, "dtype": "float32", "axis": [2], "momentum": 0.99, "epsilon": 0.001, "center": true, "scale": true, "beta_initializer": {"class_name": "Zeros", "config": {}}, "gamma_initializer": {"class_name": "Ones", "config": {}}, "moving_mean_initializer": {"class_name": "Zeros", "config": {}}, "moving_variance_initializer": {"class_name": "Ones", "config": {}}, "beta_regularizer": null, "gamma_regularizer": null, "beta_constraint": null, "gamma_constraint": null}, "name": "BN1D_Stage_4_Block_F_b", "inbound_nodes": [[["Conv1D_Stage_4_Block_F_b", 0, 0, {}]]]}, {"class_name": "TensorFlowOpLayer", "config": {"name": "Relu_38", "trainable": true, "dtype": "float32", "node_def": {"name": "Relu_38", "op": "Relu", "input": ["BN2D_Stage_4_Block_F_b/Identity"], "attr": {"T": {"type": "DT_FLOAT"}}}, "constants": {}}, "name": "tf_op_layer_Relu_38", "inbound_nodes": [[["BN2D_Stage_4_Block_F_b", 0, 0, {}]]]}, {"class_name": "TensorFlowOpLayer", "config": {"name": "Relu_78", "trainable": true, "dtype": "float32", "node_def": {"name": "Relu_78", "op": "Relu", "input": ["BN1D_Stage_4_Block_F_b/Identity"], "attr": {"T": {"type": "DT_FLOAT"}}}, "constants": {}}, "name": "tf_op_layer_Relu_78", "inbound_nodes": [[["BN1D_Stage_4_Block_F_b", 0, 0, {}]]]}, {"class_name": "Conv2D", "config": {"name": "Conv2D_Stage_4_Block_F_c", "trainable": true, "dtype": "float32", "filters": 512, "kernel_size": [1, 1], "strides": [1, 1], "padding": "valid", "data_format": "channels_last", "dilation_rate": [1, 1], "activation": "linear", "use_bias": true, "kernel_initializer": {"class_name": "GlorotUniform", "config": {"seed": null}}, "bias_initializer": {"class_name": "Zeros", "config": {}}, "kernel_regularizer": null, "bias_regularizer": null, "activity_regularizer": null, "kernel_constraint": null, "bias_constraint": null}, "name": "Conv2D_Stage_4_Block_F_c", "inbound_nodes": [[["tf_op_layer_Relu_38", 0, 0, {}]]]}, {"class_name": "Conv1D", "config": {"name": "Conv1D_Stage_4_Block_F_c", "trainable": true, "dtype": "float32", "filters": 512, "kernel_size": [1], "strides": [1], "padding": "valid", "data_format": "channels_last", "dilation_rate": [1], "activation": "linear", "use_bias": true, "kernel_initializer": {"class_name": "GlorotUniform", "config": {"seed": null}}, "bias_initializer": {"class_name": "Zeros", "config": {}}, "kernel_regularizer": null, "bias_regularizer": null, "activity_regularizer": null, "kernel_constraint": null, "bias_constraint": null}, "name": "Conv1D_Stage_4_Block_F_c", "inbound_nodes": [[["tf_op_layer_Relu_78", 0, 0, {}]]]}, {"class_name": "BatchNormalization", "config": {"name": "BN2D_Stage_4_Block_F_c", "trainable": true, "dtype": "float32", "axis": [3], "momentum": 0.99, "epsilon": 0.001, "center": true, "scale": true, "beta_initializer": {"class_name": "Zeros", "config": {}}, "gamma_initializer": {"class_name": "Ones", "config": {}}, "moving_mean_initializer": {"class_name": "Zeros", "config": {}}, "moving_variance_initializer": {"class_name": "Ones", "config": {}}, "beta_regularizer": null, "gamma_regularizer": null, "beta_constraint": null, "gamma_constraint": null}, "name": "BN2D_Stage_4_Block_F_c", "inbound_nodes": [[["Conv2D_Stage_4_Block_F_c", 0, 0, {}]]]}, {"class_name": "BatchNormalization", "config": {"name": "BN1D_Stage_4_Block_F_c", "trainable": true, "dtype": "float32", "axis": [2], "momentum": 0.99, "epsilon": 0.001, "center": true, "scale": true, "beta_initializer": {"class_name": "Zeros", "config": {}}, "gamma_initializer": {"class_name": "Ones", "config": {}}, "moving_mean_initializer": {"class_name": "Zeros", "config": {}}, "moving_variance_initializer": {"class_name": "Ones", "config": {}}, "beta_regularizer": null, "gamma_regularizer": null, "beta_constraint": null, "gamma_constraint": null}, "name": "BN1D_Stage_4_Block_F_c", "inbound_nodes": [[["Conv1D_Stage_4_Block_F_c", 0, 0, {}]]]}, {"class_name": "Add", "config": {"name": "add_12", "trainable": true, "dtype": "float32"}, "name": "add_12", "inbound_nodes": [[["BN2D_Stage_4_Block_F_c", 0, 0, {}], ["tf_op_layer_Relu_36", 0, 0, {}]]]}, {"class_name": "Add", "config": {"name": "add_25", "trainable": true, "dtype": "float32"}, "name": "add_25", "inbound_nodes": [[["BN1D_Stage_4_Block_F_c", 0, 0, {}], ["tf_op_layer_Relu_76", 0, 0, {}]]]}, {"class_name": "TensorFlowOpLayer", "config": {"name": "Relu_39", "trainable": true, "dtype": "float32", "node_def": {"name": "Relu_39", "op": "Relu", "input": ["add_12/Identity"], "attr": {"T": {"type": "DT_FLOAT"}}}, "constants": {}}, "name": "tf_op_layer_Relu_39", "inbound_nodes": [[["add_12", 0, 0, {}]]]}, {"class_name": "TensorFlowOpLayer", "config": {"name": "Relu_79", "trainable": true, "dtype": "float32", "node_def": {"name": "Relu_79", "op": "Relu", "input": ["add_25/Identity"], "attr": {"T": {"type": "DT_FLOAT"}}}, "constants": {}}, "name": "tf_op_layer_Relu_79", "inbound_nodes": [[["add_25", 0, 0, {}]]]}, {"class_name": "Flatten", "config": {"name": "flatten", "trainable": true, "dtype": "float32", "data_format": "channels_last"}, "name": "flatten", "inbound_nodes": [[["tf_op_layer_Relu_39", 0, 0, {}]]]}, {"class_name": "Flatten", "config": {"name": "flatten_1", "trainable": true, "dtype": "float32", "data_format": "channels_last"}, "name": "flatten_1", "inbound_nodes": [[["tf_op_layer_Relu_79", 0, 0, {}]]]}, {"class_name": "BatchNormalization", "config": {"name": "batch_normalization", "trainable": true, "dtype": "float32", "axis": [1], "momentum": 0.99, "epsilon": 0.001, "center": true, "scale": true, "beta_initializer": {"class_name": "Zeros", "config": {}}, "gamma_initializer": {"class_name": "Ones", "config": {}}, "moving_mean_initializer": {"class_name": "Zeros", "config": {}}, "moving_variance_initializer": {"class_name": "Ones", "config": {}}, "beta_regularizer": null, "gamma_regularizer": null, "beta_constraint": null, "gamma_constraint": null}, "name": "batch_normalization", "inbound_nodes": [[["flatten", 0, 0, {}]]]}, {"class_name": "BatchNormalization", "config": {"name": "batch_normalization_2", "trainable": true, "dtype": "float32", "axis": [1], "momentum": 0.99, "epsilon": 0.001, "center": true, "scale": true, "beta_initializer": {"class_name": "Zeros", "config": {}}, "gamma_initializer": {"class_name": "Ones", "config": {}}, "moving_mean_initializer": {"class_name": "Zeros", "config": {}}, "moving_variance_initializer": {"class_name": "Ones", "config": {}}, "beta_regularizer": null, "gamma_regularizer": null, "beta_constraint": null, "gamma_constraint": null}, "name": "batch_normalization_2", "inbound_nodes": [[["flatten_1", 0, 0, {}]]]}, {"class_name": "Dense", "config": {"name": "dense_image", "trainable": true, "dtype": "float32", "units": 1000, "activation": "relu", "use_bias": true, "kernel_initializer": {"class_name": "GlorotUniform", "config": {"seed": null}}, "bias_initializer": {"class_name": "Zeros", "config": {}}, "kernel_regularizer": null, "bias_regularizer": null, "activity_regularizer": null, "kernel_constraint": null, "bias_constraint": null}, "name": "dense_image", "inbound_nodes": [[["batch_normalization", 0, 0, {}]]]}, {"class_name": "Dense", "config": {"name": "dense_audio", "trainable": true, "dtype": "float32", "units": 1000, "activation": "relu", "use_bias": true, "kernel_initializer": {"class_name": "GlorotUniform", "config": {"seed": null}}, "bias_initializer": {"class_name": "Zeros", "config": {}}, "kernel_regularizer": null, "bias_regularizer": null, "activity_regularizer": null, "kernel_constraint": null, "bias_constraint": null}, "name": "dense_audio", "inbound_nodes": [[["batch_normalization_2", 0, 0, {}]]]}, {"class_name": "Dropout", "config": {"name": "dropout", "trainable": true, "dtype": "float32", "rate": 0.2, "noise_shape": null, "seed": null}, "name": "dropout", "inbound_nodes": [[["dense_image", 0, 0, {}]]]}, {"class_name": "Dropout", "config": {"name": "dropout_1", "trainable": true, "dtype": "float32", "rate": 0.2, "noise_shape": null, "seed": null}, "name": "dropout_1", "inbound_nodes": [[["dense_audio", 0, 0, {}]]]}, {"class_name": "BatchNormalization", "config": {"name": "batch_normalization_1", "trainable": true, "dtype": "float32", "axis": [1], "momentum": 0.99, "epsilon": 0.001, "center": true, "scale": true, "beta_initializer": {"class_name": "Zeros", "config": {}}, "gamma_initializer": {"class_name": "Ones", "config": {}}, "moving_mean_initializer": {"class_name": "Zeros", "config": {}}, "moving_variance_initializer": {"class_name": "Ones", "config": {}}, "beta_regularizer": null, "gamma_regularizer": null, "beta_constraint": null, "gamma_constraint": null}, "name": "batch_normalization_1", "inbound_nodes": [[["dropout", 0, 0, {}]]]}, {"class_name": "BatchNormalization", "config": {"name": "batch_normalization_3", "trainable": true, "dtype": "float32", "axis": [1], "momentum": 0.99, "epsilon": 0.001, "center": true, "scale": true, "beta_initializer": {"class_name": "Zeros", "config": {}}, "gamma_initializer": {"class_name": "Ones", "config": {}}, "moving_mean_initializer": {"class_name": "Zeros", "config": {}}, "moving_variance_initializer": {"class_name": "Ones", "config": {}}, "beta_regularizer": null, "gamma_regularizer": null, "beta_constraint": null, "gamma_constraint": null}, "name": "batch_normalization_3", "inbound_nodes": [[["dropout_1", 0, 0, {}]]]}, {"class_name": "Concatenate", "config": {"name": "concatenate", "trainable": true, "dtype": "float32", "axis": -1}, "name": "concatenate", "inbound_nodes": [[["batch_normalization_1", 0, 0, {}], ["batch_normalization_3", 0, 0, {}]]]}, {"class_name": "Dense", "config": {"name": "Merged_dense_1", "trainable": true, "dtype": "float32", "units": 2000, "activation": "relu", "use_bias": true, "kernel_initializer": {"class_name": "GlorotUniform", "config": {"seed": null}}, "bias_initializer": {"class_name": "Zeros", "config": {}}, "kernel_regularizer": null, "bias_regularizer": null, "activity_regularizer": null, "kernel_constraint": null, "bias_constraint": null}, "name": "Merged_dense_1", "inbound_nodes": [[["concatenate", 0, 0, {}]]]}, {"class_name": "Dense", "config": {"name": "Merged_dense_2", "trainable": true, "dtype": "float32", "units": 1000, "activation": "relu", "use_bias": true, "kernel_initializer": {"class_name": "GlorotUniform", "config": {"seed": null}}, "bias_initializer": {"class_name": "Zeros", "config": {}}, "kernel_regularizer": null, "bias_regularizer": null, "activity_regularizer": null, "kernel_constraint": null, "bias_constraint": null}, "name": "Merged_dense_2", "inbound_nodes": [[["Merged_dense_1", 0, 0, {}]]]}, {"class_name": "Dropout", "config": {"name": "dropout_2", "trainable": true, "dtype": "float32", "rate": 0.2, "noise_shape": null, "seed": null}, "name": "dropout_2", "inbound_nodes": [[["Merged_dense_2", 0, 0, {}]]]}, {"class_name": "BatchNormalization", "config": {"name": "batch_normalization_4", "trainable": true, "dtype": "float32", "axis": [1], "momentum": 0.99, "epsilon": 0.001, "center": true, "scale": true, "beta_initializer": {"class_name": "Zeros", "config": {}}, "gamma_initializer": {"class_name": "Ones", "config": {}}, "moving_mean_initializer": {"class_name": "Zeros", "config": {}}, "moving_variance_initializer": {"class_name": "Ones", "config": {}}, "beta_regularizer": null, "gamma_regularizer": null, "beta_constraint": null, "gamma_constraint": null}, "name": "batch_normalization_4", "inbound_nodes": [[["dropout_2", 0, 0, {}]]]}, {"class_name": "Dense", "config": {"name": "Merged_Dense_3", "trainable": true, "dtype": "float32", "units": 100, "activation": "relu", "use_bias": true, "kernel_initializer": {"class_name": "GlorotUniform", "config": {"seed": null}}, "bias_initializer": {"class_name": "Zeros", "config": {}}, "kernel_regularizer": null, "bias_regularizer": null, "activity_regularizer": null, "kernel_constraint": null, "bias_constraint": null}, "name": "Merged_Dense_3", "inbound_nodes": [[["batch_normalization_4", 0, 0, {}]]]}, {"class_name": "Dense", "config": {"name": "output_Layer", "trainable": true, "dtype": "float32", "units": 5, "activation": "sigmoid", "use_bias": true, "kernel_initializer": {"class_name": "GlorotUniform", "config": {"seed": null}}, "bias_initializer": {"class_name": "Zeros", "config": {}}, "kernel_regularizer": null, "bias_regularizer": null, "activity_regularizer": null, "kernel_constraint": null, "bias_constraint": null}, "name": "output_Layer", "inbound_nodes": [[["Merged_Dense_3", 0, 0, {}]]]}], "input_layers": [["image_Inputs", 0, 0], ["audio_Inputs", 0, 0]], "output_layers": [["output_Layer", 0, 0]]}, "keras_version": "2.2.4-tf", "backend": "tensorflow"}